DeepFM_Model/debug/fe.pt (torch, 173843 bytes, 1 tensors)

weight f4 [2625, 16]
0	0x3ca97546	0.020685803
1	0xbd377240	-0.04478669
2	0x3d41066b	0.04712526
3	0x3d289241	0.041155104
4	0x3d0ae081	0.03390551
5	0x3cb5d4ba	0.022196162
6	0x3cebb78a	0.028774042
7	0xbd04b2db	-0.032397132
8	0xbd3af534	-0.045644
9	0x3d3774bb	0.044789057
10	0x3c647024	0.013942752
11	0xbd0a6fee	-0.03379815
12	0xbd08f345	-0.033435125
13	0xbd3f7058	-0.046738
14	0xbcc1d066	-0.023658942
15	0x3c413ad0	0.011793807
16	0xbd2c4c96	-0.042065226
17	0xbc3e2cb4	-0.011607338
18	0xbd01c1ea	-0.03167907
19	0xbc82a90e	-0.015949752
20	0xbb699250	-0.0035640188
21	0xb9b5ed00	-0.0003469959
22	0x3d2fe9ab	0.042947453
23	0x3c902c42	0.017599229
24	0xbcc6d075	-0.024269322
25	0xbd0e2a67	-0.034708407
26	0xbc7c45d4	-0.015397508
27	0xbc3c82bc	-0.011505779
28	0xb9bda700	-0.00036173314
29	0x3c061f7c	0.008186217
30	0xbbca7918	-0.0061789863
31	0x3d027957	0.031854
32	0x3acf9ba0	0.0015839227
33	0x3d171cf9	0.036892865
34	0xbd01453c	-0.031560168
35	0xbcb64f61	-0.022254648
36	0xbc9b0e82	-0.018927816
37	0xbcf93f16	-0.03042559
38	0xbd20c83a	-0.03925345
39	0xbcdaa341	-0.026689174
40	0xbcdc906f	-0.02692434
41	0xbcb7d0d0	-0.022438437
42	0x3d050a55	0.032480557
43	0xbb31ac40	-0.0027110726
44	0xbd2b9599	-0.041890714
45	0x3d0ae057	0.033905353
46	0x3cb68e0a	0.022284526
47	0x3caa7282	0.020806555
48	0x3c967f6a	0.018371303
49	0xbd1b2abd	-0.037882555
50	0x3ce410e6	0.027840089
51	0xbd123a0c	-0.03569989
52	0x3bb36718	0.005474936
53	0xbaca2b60	-0.0015424304
54	0xbc0b319c	-0.0084957145
55	0x3d1cd837	0.038292136
56	0xbbcaf300	-0.0061935186
57	0x3c3bb3bc	0.011456426
58	0x3c3efee8	0.011657454
59	0xbcfd56e0	-0.030925214
60	0x3c4faaa8	0.012674965
61	0x3b35baf0	0.0027729832
62	0x3c8435de	0.016138967
63	0xba0fe5c0	-0.00054892525
64	0x3d1283c5	0.035770196
65	0x3d25db59	0.04049239
66	0x3bd72f08	0.006566886
67	0x3ce516e2	0.027965013
68	0xbc3e0a28	-0.011599101
69	0x3b72bad0	0.0037037618
70	0xbc861a36	-0.01636992
71	0x3b3dc030	0.0028953664
72	0xbd24b625	-0.04021277
73	0x3cd1be2a	0.025603373
74	0x3d21682d	0.03940599
75	0xbd044e46	-0.03230121
76	0xbbc44cf8	-0.0059906207
77	0x3c2b9754	0.010473091
78	0xbd112506	-0.0354357
79	0x3d04694d	0.032326985
80	0xbc8c1137	-0.017098052
81	0x3cba460a	0.022738475
82	0x3d380ec9	0.044935975
83	0x3cff00ae	0.031128254
84	0xbd0255b4	-0.031820014
85	0xbb43ef20	-0.0029897168
86	0xbd065835	-0.032798965
87	0xbb968068	-0.004592944
88	0xbc744758	-0.014909588
89	0xbc1b91a4	-0.009495173
90	0xbcd81f8f	-0.026382236
91	0x3be74500	0.007057786
92	0xbd1ec743	-0.03876425
93	0x3c1a61ac	0.009422701
94	0xbb254460	-0.0025217757
95	0x3d33f997	0.0439392
96	0xbcf4c5e3	-0.029879516
97	0x39aeb080	0.0003331937
98	0xbd369467	-0.04457512
99	0xbd2c911e	-0.042130582
100	0xbd084a13	-0.033273768
101	0xbd35bd25	-0.044369835
102	0xbcbb1636	-0.02283774
103	0xbd3e6e19	-0.046491716
104	0x3d1314af	0.035908397
105	0xbc6d5438	-0.014485411
106	0xbd36407d	-0.044495095
107	0xbb8bed70	-0.004270248
108	0x3c378ad0	0.011202529
109	0x3ca3469e	0.019931134
110	0x3c5665c8	0.01308579
111	0xbbee4518	-0.00727142
112	0x3d1cd861	0.038292293
113	0x3c6895c4	0.014195863
114	0xbd13a189	-0.036042724
115	0xbc50aa98	-0.012735985
116	0x3c4115a0	0.011784941
117	0x3c49c91c	0.012316015
118	0xbc2685cc	-0.010163736
119	0x3bb2b998	0.0054542534
120	0xbd215a9b	-0.03939305
121	0x3d16e4b9	0.03683922
122	0xba691bc0	-0.00088923797
123	0x3cda1112	0.026619468
124	0xbd3a5c79	-0.045498345
125	0x3b024150	0.0019875355
126	0xbca090b6	-0.019600254
127	0x3a55a740	0.00081502274
128	0x3c4bf384	0.012448195
129	0xbc8fb1aa	-0.017540772
130	0xb93e8600	-0.00018169731
131	0xbb636630	-0.003469836
132	0xba1e4940	-0.0006038137
133	0x3d1d7a1f	0.038446542
134	0x3d3ed399	0.046588514
135	0x3bea6b98	0.0071539395
136	0x3ca48da6	0.020087074
137	0xbd34ac57	-0.04410967
138	0x3cda3b1a	0.02663951
139	0xbcc97dad	-0.02459606
140	0xbd1d6ea2	-0.038435586
141	0x3c339ef8	0.010963194
142	0xbd2e336f	-0.04252952
143	0xbcd53cb5	-0.026029924
144	0x3bd45fe0	0.0064811558
145	0xbd302fd3	-0.04301436
146	0x3c840aea	0.016118485
147	0x3cb52b86	0.02211548
148	0xbcce9f92	-0.025222573
149	0xbc95ead0	-0.018300444
150	0xbc8b05fd	-0.016970629
151	0x3cf401f2	0.029786084
152	0x3cc2168a	0.023692388
153	0xbd3fc5d3	-0.04681952
154	0xbcc636c9	-0.024196045
155	0xbd31fb76	-0.043452702
156	0x3caf610a	0.021408577
157	0x3d1ac525	0.037785668
158	0x3d1be721	0.03806222
159	0xbd334e4a	-0.043775834
160	0xbb2eed90	-0.0026691891
161	0x3cfe72fe	0.031060692
162	0xbd426d62	-0.047467597
163	0x3c4a008c	0.012329232
164	0xbb28a160	-0.0025730953
165	0x3b509e30	0.0031832568
166	0xbd35c05d	-0.044372905
167	0xbd1ef736	-0.038809977
168	0x3c7f80dc	0.015594687
169	0xbcd1f4c8	-0.025629416
170	0x3cf6479a	0.03006344
171	0x3c626700	0.013818502
172	0xbcbae176	-0.022812586
173	0xbca7a22c	-0.020463072
174	0x3c49a0c0	0.012306392
175	0x3c3d5928	0.011556901
176	0x3d0893a7	0.033343937
177	0x3d429c57	0.04751238
178	0x3d1374a1	0.035999898
179	0xbc6090c0	-0.013706386
180	0xbc613460	-0.013745397
181	0x3d13d665	0.036093134
182	0x3b812cc0	0.003942102
183	0xbc41ee50	-0.011836603
184	0xbc32c260	-0.0109106
185	0xbc26f6b8	-0.010190658
186	0xbd2d6272	-0.042330213
187	0x3d1e7143	0.038682234
188	0x3d243bcd	0.040096093
189	0xbccedb21	-0.025250973
190	0xbd0285e2	-0.03186596
191	0xbb839860	-0.0040159672
192	0x3c7464cc	0.01491661
193	0x3d41b53f	0.04729199
194	0x3c40802c	0.011749309
195	0x3d22037b	0.0395541
196	0x3b267430	0.0025398843
197	0xbc230d3c	-0.009951886
198	0xbb6bd880	-0.0035987198
199	0xbd144441	-0.036197904
200	0x3c96361e	0.018336352
201	0xbb5a9ea0	-0.0033358708
202	0xbc9aac6e	-0.018881049
203	0x3bfc8888	0.0077067055
204	0xbd2b18fe	-0.04177188
205	0x3ce1e7ae	0.027576294
206	0x3d1dc041	0.038513426
207	0xbd25ebfc	-0.040508255
208	0xbb895420	-0.0041909367
209	0x3cf29b72	0.029615138
210	0x3ce986be	0.028506633
211	0x3cca6b3a	0.024709333
212	0xbd1f92fc	-0.038958535
213	0x3b975c98	0.0046191923
214	0x3ca609d6	0.020268362
215	0xbbc51828	-0.0060148425
216	0x3b98a0c8	0.0046578385
217	0xbd148ac4	-0.03626515
218	0x3cf4a096	0.02986173
219	0xbc8ba27b	-0.01704525
220	0xbc5f1984	-0.013616923
221	0x3bab2cc0	0.0052238405
222	0x3d218a1b	0.03943835
223	0xbd3a4b55	-0.045482
224	0x3d349019	0.044082735
225	0x3d00a327	0.031405594
226	0x3ba8a8c0	0.0051470697
227	0xbc981f9f	-0.018569766
228	0x3ca7e23a	0.020493615
229	0x3cf1c2b2	0.029511783
230	0x3d2b3945	0.041802663
231	0xbcdc4eae	-0.026892986
232	0x3c13469c	0.008989003
233	0xbcfa2d81	-0.030539276
234	0xbd26d4f4	-0.04073043
235	0xbc3df240	-0.011593401
236	0xbcaea60c	-0.021319412
237	0xbba8d910	-0.005152829
238	0xbcb7fe7a	-0.022460211
239	0x3ba41348	0.0050071813
240	0x3d1cbefb	0.03826807
241	0x3d341bad	0.043971706
242	0x3cdcabe2	0.026937429
243	0xbd3f6385	-0.04672577
244	0x3a5cac00	0.0008417964
245	0x3d384a8d	0.044992972
246	0x3be060f8	0.006847497
247	0x3cf3b19a	0.029747773
248	0xbc5ec4c4	-0.013596717
249	0x3d2cbccf	0.04217225
250	0x3c889746	0.016673695
251	0xbc3bab58	-0.011454426
252	0x3cc4490e	0.023960616
253	0x3d06c541	0.03290296
254	0xbc868be7	-0.016424133
255	0xbce7a2be	-0.028275844
