DeepFM_Model/debug/fl.pt (torch, 16586 bytes, 1 tensors)

weight f4 [2625, 1]
1.2732121 0.5757234 -0.5461156 -0.7906192 -1.2422806 0.013744049 -0.7137212 -0.38571286
-0.03180281 -1.2100708 0.48922214 -0.07547283 -0.5439042 -0.71925515 -0.13863301 -0.6785648
-0.06162702 0.58836067 -1.0806754 -1.0270777 -0.95161194 -0.47245294 1.2387604 0.3814127
0.3923698 0.8218039 -1.5394775 3.9890294 0.70926124 -1.0757139 -0.7059879 -0.3426225
0.54142225 0.08693228 1.9390222 -0.39163348 0.58213055 0.6924834 1.2462598 -1.731787
0.4108882 0.40705124 0.84695923 0.6176871 0.6665686 -0.8629358 -2.2583869 -0.5984031
-0.4758019 -0.6987224 0.61056733 -1.0785863 0.058733635 -1.4347675 -1.6103082 1.0956298
-1.3882923 -0.114366874 0.30639863 0.8586464 1.4365389 -0.8987331 0.85846555 0.91043305
0.62710106 -0.5329021 -0.26535356 -0.02776973 1.9120167 -0.6716418 0.18130983 -0.2530744
1.3566958 -1.5511769 -0.05943079 1.9955076 -0.73521453 -0.39577538 -0.2895378 -0.6213431
0.15328616 -0.11547601 -0.66853887 -0.091965 -0.096712485 -0.2728056 -2.0032206 -0.53381
-0.43545714 0.0009446761 -0.8217112 0.4085886 0.37099174 0.9818063 -1.0273281 1.85449
-1.6767675 0.86604273 -0.44010958 0.49409038 0.9681466 -0.18942478 -1.5767235 1.7528872
-0.82646453 -0.7097066 0.05365821 -1.4499723 0.095905855 0.9288991 0.8593749 1.3671956
-1.7149321 -1.0438298 0.849386 0.022180319 0.35021073 0.794752 -0.27627525 -0.068147354
-0.1381197 0.97791183 1.0042746 -0.8362177 0.16439681 1.4209001 2.1225753 1.5897175
0.5379926 -2.1200404 1.0748674 0.25913778 0.15136087 1.1538448 1.5822659 -1.2906096
-0.30524284 0.2969747 -1.1737261 -1.1258425 -0.6212911 0.7407 -1.6961802 -0.19632506
-0.53566396 -0.8897333 -0.87032825 -0.58734405 -0.5155195 -0.00947166 -0.01048192 -0.657043
0.5501065 -0.47831854 2.2424939 -1.3930792 -1.4566277 -0.34376884 1.7089794 -0.36740616
0.44551075 0.14536165 -1.2981126 0.43937057 -0.5437949 -0.79328513 0.48996067 0.91415054
-1.4549257 -0.7587329 0.54823285 1.150424 0.60831875 1.3299712 0.6930146 0.5329278
-0.8407409 -0.7817137 0.3512813 -0.6984727 -0.63982666 0.2966013 0.028141318 1.4081143
0.009071564 -0.046125032 -1.0327399 -1.3370004 0.99552083 -0.07455019 -0.47875625 -0.5069144
0.94134486 -2.1632326 1.062288 1.1405523 -0.3710946 -0.19691622 -0.380956 0.71041906
1.2843323 0.913419 0.48019615 -0.6180943 -0.4430097 0.2584822 -0.40307686 -0.48297864
-0.74511254 -0.29912865 0.092444524 -0.25448212 -0.09384401 -1.7488059 1.728923 -0.6006484
0.52743065 0.06770295 0.70848656 0.44588348 0.4019176 1.3999757 -1.1906577 0.25995684
0.9943094 -1.976009 -1.025079 -0.5563825 1.310801 1.3830384 -2.1429496 -0.5727736
0.03461253 0.28445268 0.8491138 1.0054961 -0.24222921 -0.9012743 1.1606703 1.3021346
-0.28848603 1.1107572 1.382125 -0.22987247 -1.2144464 1.3190043 -0.18382677 1.3397535
1.5500648 -0.94251317 -1.1731652 -1.1503451 -1.6263251 -0.46750483 -0.50936866 -0.7466911
00000000: 9df8 a23f 9c62 133f 3bce 0bbf 0566 4abf
00000010: 0d03 9fbf b82e 613c 6fb6 36bf 287c c5be
00000020: aa43 02bd 9ae3 9abf 537b fa3e 8091 9abd
00000030: 4e3d 0bbf 1b21 38bf d0f5 0dbe 6cb6 2dbf
00000040: 9d6c 7cbd ce9e 163f 9253 8abf 4877 83bf
00000050: d79c 73bf 5ae5 f1be b38f 9e3f 8748 c33e
00000060: b2e4 c83e be61 523f 990d c5bf 424c 7f40
00000070: 2592 353f feb0 89bf 9fbb 34bf 376c afbe
00000080: a69a 0a3f 8d09 b23d e131 f83f 2f84 c8be
00000090: 8206 153f 9846 313f 7185 9f3f 32ab ddbf
000000a0: f05f d23e 0569 d03e 52d2 583f be20 1e3f
000000b0: 3da4 2a3f 5ce9 5cbf 6989 10c0 f230 19bf
000000c0: 4e9c f3be 79df 32bf 244e 1c3f 1e0f 8abf
000000d0: ae92 703d 76a6 b7bf 941e cebf 993d 8c3f
000000e0: 90b3 b1bf 2e39 eabd 48e0 9c3e 40d0 5b3f
000000f0: 82e0 b73f 5f13 66bf 66c4 5b3f 2412 693f
00000100: b289 203f 466c 08bf 6cdc 87be 587d e3bc
00000110: f7bc f43f b8f0 2bbf 49a9 393e f892 81be
00000120: 35a8 ad3f f78c c6bf b36d 73bd cb6c ff3f
00000130: 0537 3cbf 12a3 cabe 4c3e 94be 5710 1fbf
00000140: 0cf7 1c3e b07e ecbd 5d25 2bbf 2558 bcbd
00000150: 3211 c6bd 2dad 8bbe c434 00c0 c6a7 08bf
00000160: 3df4 debe 24a4 773a aa5b 52bf 8632 d13e
00000170: a1f2 bd3e a857 7b3f 7d7f 83bf ee5f ed3f
00000180: 51a0 d6bf fab4 5d3f 0b56 e1be 6af9 fc3e
00000190: 75d8 773f 92f8 41be 13d2 c9bf 9c5e e03f
000001a0: 2e93 53bf 55af 35bf b6c8 5b3d b198 b9bf
000001b0: 4a6a c43d 55cc 6d3f feff 5b3f 4400 af3f
000001c0: e582 dbbf 379c 85bf 5c71 593f 80b3 b53c
000001d0: d24e b33e de74 4b3f f373 8dbe d790 8bbd
000001e0: 406f 0dbe 6e58 7a3f 128c 803f 5d12 56bf
000001f0: a357 283e 0ee0 b53f 46d8 0740 dd7b cb3f
00000200: e2b9 093f beae 07c0 4195 893f b5ad 843e
00000210: 58fe 1a3e 30b1 933f b087 ca3f b232 a5bf
00000220: ca48 9cbe 110d 983e a83c 96bf 9b1b 90bf
00000230: ef0c 1fbf 849e 3d3f 6f1c d9bf 7009 49be
00000240: 4621 09bf 90c5 63bf d5cd 5ebf 2e5c 16bf
00000250: 16f9 03bf 052f 1bbc 5cbc 2bbc f833 28bf
00000260: c8d3 0c3f 2be6 f4be 0585 0f40 6b50 b2bf
00000270: c772 babf 7802 b0be d6bf da3f a91c bcbe
00000280: fc19 e43e afd9 143e 8e28 a6bf 2ef5 e03e
00000290: 2436 0bbf bc14 4bbf 20dc fa3e c505 6a3f
000002a0: 013b babf 523c 42bf fd58 0c3f 1841 933f
000002b0: c7ba 1b3f 7f3c aa3f 6869 313f f56d 083f
000002c0: cc3a 57bf 641e 48bf 24db b33e 1bcf 32bf
000002d0: aecb 23bf 20dc 973e 9f88 e63c 173d b43f
000002e0: e6a0 143c 9aed 3cbd d230 84bf d422 abbf
000002f0: 74da 7e3f c5ad 98bd 8a1f f5be 24c5 01bf
00000300: fafb 703f 6772 0ac0 0ef9 873f 9efd 913f
00000310: 1d00 bebe 68a4 49be aa0c c3be 06de 353f
00000320: 0065 a43f d4d5 693f 45dc f53e 6e3b 1ebf
00000330: 2bd2 e2be c757 843e 1760 cebe fa48 f7be
00000340: b2bf 3ebf 6427 99be 8e53 bd3d 7b4b 82be
00000350: 4a31 c0bd dfd8 dfbf 594d dd3f 18c4 19bf
00000360: b205 073f d8a7 8a3d 605f 353f d74a e43e
00000370: 25c8 cd3e 6732 b33f 7967 98bf 1019 853e
00000380: 108b 7e3f dded fcbf ca35 83bf 156f 0ebf
00000390: 54c8 a73f 6707 b13f 1626 09c0 4aa1 12bf
000003a0: dec5 0d3d c8a3 913e 865f 593f 19b4 803f
000003b0: ef0a 78be eab9 66bf d890 943f 59ac a63f
000003c0: 71b4 93be 4b2d 8e3f 79e9 b03f b063 6bbe
000003d0: fb72 9bbf 22d5 a83f 163d 3cbe 0b7d ab3f
000003e0: 8668 c63f 8b48 71bf 472a 96bf 823e 93bf
000003f0: 6c2b d0bf cb5c efbe fc65 02bf 2627 3fbf
