DeepFM_Model/debug/mlp.pt (torch, 13264 bytes, 5 tensors)

weight f4 [16, 32]
000000 00 91 84 3a e2 70 a7 3d 16 fb 94 3d f8 03 d2 bc
       0.0010114014 0.081758276 0.07274453 -0.025636658
000010 79 4a 9f bd 53 fb 24 3e fb 8a aa bd 2d 9e b8 bd
       -0.077778764 0.16111498 -0.0832729 -0.09014545
000020 5e 29 cd 3d 10 e6 12 3d 80 8b aa ba e4 e9 19 bd
       0.10017656 0.035863936 -0.0013011545 -0.03757657
000030 ad d8 9f bd 88 ac 6f 3d ee 4f ef bd a0 e5 b7 3b
       -0.078049995 0.058514148 -0.11685167 0.00561209
000040 90 36 28 3d 6a a2 f6 3d 20 8b 89 3b 12 42 bd 3d
       0.04106766 0.12042697 0.004197493 0.092411175
000050 f0 f4 0e 3c 80 68 33 bc 77 16 0c 3e 40 e9 8f 3c
       0.00872539 -0.010950208 0.13680445 0.017567277
000060 21 0a ec bd 50 03 64 3d f5 e5 86 bd 38 19 c1 bc
       -0.115253694 0.05566722 -0.065868296 -0.023571596
000070 e0 74 44 bd 81 a0 2b 3e 93 08 d0 bd d6 8a a5 3d
       -0.047963023 0.16760446 -0.101578854 0.080831215
000080 68 d8 5d bd 9d a7 1d 3e f8 6c 01 bd 4a 63 85 3d
       -0.05416146 0.1539597 -0.03159806 0.065130785
000090 2d 71 21 3e c0 71 26 be de bd d9 3d 2c 58 49 3d
       0.1576583 -0.1625433 0.106319174 0.049156353
0000a0 84 c0 2a 3d 2a 4f a1 3d 86 a2 1d be 6f c1 e8 bd
       0.041687503 0.078764275 -0.15394029 -0.113650195
0000b0 06 22 e5 3d 9f 04 27 3e c4 56 16 3d 20 08 33 3c
       0.1118813 0.16310357 0.03670384 0.01092723
0000c0 00 be 06 be ae cc d4 3d f0 e8 aa 3c 6a 3f 0c be
       -0.13158417 0.10390602 0.020863026 -0.13696066
0000d0 1e d1 fa 3d 92 78 b6 3d 3a 52 5a bd e4 20 4b 3d
       0.12246917 0.08909716 -0.053301074 0.049591914
0000e0 b2 b0 72 bd 05 bb 1c 3e 4a 60 d4 3d 98 b0 44 3d
       -0.05925054 0.15305717 0.10369928 0.048019975
0000f0 ac 74 82 3d 74 4f 1c be ed 21 03 be ee 31 f6 bd
       0.0636991 -0.15264684 -0.1280591 -0.12021242
000100 c2 bd cd 3d 56 eb b6 3d 54 14 87 3d 86 61 fe 3d
       0.10045959 0.089316055 0.06595674 0.12420945
000110 00 4f d0 bc f8 b1 24 be aa 5f 67 bd c0 b6 b1 bb
       -0.025428295 -0.16083515 -0.056487717 -0.005423397
000120 6e f2 01 be 3d e3 fc bd d3 66 0f 3e d6 99 ee 3d
       -0.12690136 -0.1234803 0.14004068 0.116504356
000130 b6 8d ea 3d c0 24 db 3b cc 1f 80 3d 64 60 1c bd
       0.114528105 0.0066877306 0.06256065 -0.038177863
000140 cd 09 06 3e da 6c b1 3d 05 1e bd bd 34 a2 76 3d
       0.13089676 0.0866334 -0.092342414 0.060213283
000150 a6 d3 ae bd be 2c d3 3d 6c cd c2 bd 6f 3d 15 3e
       -0.085364625 0.10311268 -0.09511837 0.14574216
000160 80 b2 75 bc e7 87 33 be b0 c8 24 be 28 28 7b bd
       -0.014996171 -0.17532311 -0.16092181 -0.061317593
000170 06 e9 19 be 00 da 26 3d bc be dc bd 16 d3 69 bd
       -0.15030298 0.040735245 -0.10778567 -0.057086073
000180 d8 9b 96 3c 41 5f 2b 3e 20 ad 50 bd 4f c2 00 3e
       0.018384859 0.16735555 -0.050946355 0.12574123
000190 32 c1 98 3d ac 03 9d bd 17 da 16 3e 1c b2 7c 3d
       0.07458724 -0.07666716 0.14731632 0.061693296
0001a0 23 65 14 3e 71 8c 08 be d4 4e 00 3d e0 86 ff 3c
       0.14491706 -0.13334824 0.031325176 0.031192243
0001b0 66 0e 95 3d 73 d9 15 3e 60 3e d0 bb f0 7d cb bc
       0.07278137 0.14633732 -0.006355092 -0.024840325
0001c0 c0 fa 4f bc 0a e1 88 bd 89 2f 0d 3e b8 fc be 3c
       -0.012694061 -0.06683548 0.13787664 0.023313865
0001d0 95 2c e7 bd db 37 00 3e 08 ef dc 3c 7a f5 db bd
       -0.112878 0.12521307 0.026969448 -0.1074018
0001e0 fa 8e 08 be 3d 90 34 3e b6 65 d6 3d 0c af 19 bd
       -0.13335791 0.17633148 0.104686186 -0.037520453
0001f0 a0 b0 6a bc f1 cc 00 be 00 d0 74 b8 76 f7 a8 3d
       -0.014324337 -0.12578179 -5.836785e-05 0.082503244
000200 1a 2a c3 3d 00 c2 77 bc 80 8d 72 3c 80 8e 43 3b
       0.095295146 -0.015121937 0.014804244 0.0029839575
000210 93 f9 10 3e 92 e2 ef 3d df 1d 1d 3e 94 14 07 3d
       0.14157705 0.11713137 0.15343426 0.03297861
000220 4a 9f 88 bd 8d 45 11 be 7e c7 c8 bd b1 8c 21 be
       -0.06671007 -0.14186688 -0.09803675 -0.15776326
000230 ed f8 82 bd 80 3d 82 3a 80 f6 24 bd c2 64 e8 bd
       -0.06395135 0.0009936541 -0.040274143 -0.11347343
000240 36 dc fe 3d 74 85 65 3d 80 53 86 3d 49 b7 27 be
       0.12444346 0.056035474 0.06558895 -0.16378511
000250 5c 37 0e 3d 33 76 93 bd 11 d3 1f 3e 2e 33 ab 3d
       0.034720764 -0.07200279 0.15607859 0.08359371
000260 9a cc ba 3d 48 e3 98 3c 00 37 34 bd 7c c0 c6 bd
       0.09121056 0.018663064 -0.043997765 -0.09704682
000270 74 b4 26 be b7 4f 33 3e 29 06 b4 bd 8b 12 c5 bd
       -0.16279775 0.17510878 -0.087902375 -0.096226774
000280 44 be 32 bd 6b 11 27 3e c1 60 fc bd d2 91 d2 3d
       -0.043638483 0.16315238 -0.12323142 0.10281719
000290 b8 7c e9 bd c6 d0 de 3d c0 2c 2d 3c cd d8 31 3e
       -0.11400741 0.10879664 0.010569751 0.17367859
0002a0 60 6a 07 3d 17 66 22 be 29 14 e4 bd ae 1e bd 3d
       0.03306043 -0.15859257 -0.11136658 0.09234367
0002b0 df 52 30 3e 90 14 83 bc 70 0f 08 bd ee ee ec 3d
       0.17219113 -0.016001016 -0.033217847 0.1156901
0002c0 dd e0 9d bd 90 59 1e bc 20 59 87 bd d1 49 29 be
       -0.07708905 -0.009664908 -0.06608796 -0.16532065
0002d0 69 81 23 be 52 41 0b be fb 16 22 be 76 22 32 be
       -0.15967335 -0.13599136 -0.15829079 -0.17395958
0002e0 5e 83 c2 3d e0 57 c8 3b 00 c2 c4 3c c8 3b f0 bd
       0.094977126 0.006113991 0.024018288 -0.11730152
0002f0 50 3a 21 bd 90 bc 14 3c ec 08 46 bd 94 57 0a bd
       -0.03936225 0.00907816 -0.048348352 -0.033774927
000300 23 c8 a1 bd 30 66 44 bd 8b da 01 be 95 cc 22 3e
       -0.07899501 -0.047949016 -0.12681024 0.15898354
000310 8c 1a 16 be 23 32 d9 bd 40 98 df bd 23 b3 20 3e
       -0.14658564 -0.10605266 -0.10917711 0.15693335
000320 73 a1 18 be 03 b6 e6 bd a0 4d 8c 3b fd 2b 14 3e
       -0.14905338 -0.11265185 0.0042817146 0.14469905
000330 10 f0 1f 3c e1 df 09 3e 08 51 17 bd e8 5c 9c 3c
       0.009761825 0.1346431 -0.03694251 0.01908727
000340 00 4c 2c bd f7 f9 13 be 8c 2c 4b bd 30 a6 6e bc
       -0.042064667 -0.14450823 -0.04960303 -0.014565989
000350 c7 44 d0 bd 00 1f a8 3a 8e 5e 9d 3d 00 c5 c1 ba
       -0.10169368 0.0012826622 0.076840505 -0.0014783442
000360 f7 97 1d be d8 c9 80 3d a7 d5 02 be 50 03 05 be
       -0.15390001 0.06288499 -0.12776814 -0.12989545
000370 78 f1 25 bd 30 bb 5a bc 98 49 bb 3c 18 68 92 bd
       -0.040513486 -0.013350293 0.02286224 -0.071487606
000380 ba d5 ef bd 20 bb ff 3c 70 dd 01 3c 71 ff c4 bd
       -0.11710687 0.031217158 0.00792633 -0.09619034
000390 35 86 10 be da e1 c0 3d 03 8f 08 3e 85 c3 9b bd
       -0.14113696 0.09418078 0.13335805 -0.07605652
0003a0 50 1b 5e bc 40 fa 58 bc 8f 58 10 3e 77 12 bb bd
       -0.0135563165 -0.013243258 0.14096282 -0.09134381
0003b0 18 da b4 bd 87 48 1d be b9 08 0e 3e 37 f5 2d 3e
       -0.088306606 -0.15359698 0.13870515 0.16988073
0003c0 ee 20 d0 3d de 29 16 be f6 7f fb 3d 7c 28 1b bd
       0.10162531 -0.14664409 0.12280266 -0.037880406
0003d0 97 a2 23 3e 23 7f 8d bd ce a6 9b 3d 53 cf 24 3e
       0.15979992 -0.06909015 0.07600175 0.16094713
0003e0 fe c6 a7 3d 5f 9d 22 3e 00 f5 de 3c 75 22 28 3e
       0.081922516 0.15880345 0.027216434 0.16419394
0003f0 0f e8 03 3e 54 6c 45 3d 40 e4 44 3c 30 c2 17 be
       0.12881492 0.048199013 0.01201731 -0.1482017

bias f4 [16]
000000 14 96 64 bd 33 aa 00 be b7 0f 1d 3e 20 c0 5a bc
       -0.05580719 -0.12564926 0.15338026 -0.01335147
000010 b8 19 da 3c 7f 72 1c 3e be eb f3 3d 34 16 46 3d
       0.026623592 0.15278052 0.11910199 0.04836102
000020 96 7a fb 3d ac 15 e2 bd 04 5d 40 bd d2 7a a5 3d
       0.12279241 -0.1103929 -0.046963707 0.08080067
000030 e5 fd 08 be d6 ce 89 3d 00 cc 0b 3a a4 e5 bc bd
       -0.13378103 0.06728904 0.00053328276 -0.09223488

weight f4 [16, 16]
000000 f0 15 46 3e e6 38 16 3e 40 23 42 3c 80 8b 29 3d
       0.19344306 0.14670143 0.011849225 0.041392803
000010 b6 66 09 3e 90 d6 45 3e dc aa a0 bd e0 35 50 3e
       0.13418087 0.1932013 -0.07845089 0.20333052
000020 c0 bb 60 3d 3c 75 f1 3d 20 13 f5 3d 8c 8b 46 3e
       0.054866552 0.11789939 0.119665384 0.1938917
000030 98 72 9e 3d e8 ce 32 3e 20 d0 f9 3d dc 8c 4c be
       0.07736701 0.17461741 0.121979 -0.19975609
000040 d8 9c bd bd a4 3c 63 be ec 2e 99 3d bc 48 3f be
       -0.09258431 -0.22191101 0.07479653 -0.1868009
000050 8e 63 00 3e e4 24 0b 3e b0 d2 18 bd e6 ce 03 be
       0.12537977 0.13588291 -0.037310302 -0.12871894
000060 e8 0f 03 be 1c 94 91 3d 00 65 8d bd 58 97 2e bd
       -0.12799037 0.07108328 -0.0690403 -0.0426248
000070 4e c6 22 3e 1e 70 73 3e 00 66 46 3a 30 d8 8b bd
       0.1589596 0.23773238 0.00075683 -0.06828344
000080 32 c8 4f be c2 6f 39 be 00 3c f4 39 56 b1 2a be
       -0.20291212 -0.18109038 0.0004658401 -0.16669211
000090 fc a2 6e be b0 e7 16 3e c0 56 9a bd 22 5c 73 be
       -0.23304361 0.1473682 -0.075360775 -0.23765615
0000a0 1e 06 51 be 62 ba 59 3e 48 62 86 bd d0 be c4 3d
       -0.2041249 0.21262506 -0.065617144 0.09606707
0000b0 58 01 0d bd c0 30 4a be 20 0a 5c 3d c4 eb 41 be
       -0.03442511 -0.19745159 0.053720593 -0.18937594
0000c0 ac 7d 7f be 2c 41 a1 bd 8c cd 5e be 80 63 a7 3b
       -0.24950284 -0.07873759 -0.21758097 0.005108297
0000d0 08 de ef 3d 68 5f e9 bd e0 fd 1e 3d 00 0e 35 bd
       0.11712271 -0.113951504 0.038816333 -0.044202805
0000e0 6e 5c 58 3e 70 0b f7 bc 52 82 49 be 28 51 ad bd
       0.21129009 -0.030156821 -0.1967862 -0.08462745
0000f0 1c 7a ce bd 00 c4 64 3e 8a 8d 17 be ea b5 09 3e
       -0.10081884 0.22340393 -0.14800087 0.13448301
000100 b8 99 47 be b6 99 3c 3e a0 eb 8f bd 00 74 ac b9
       -0.19492233 0.18418011 -0.07027364 -0.00032892823
000110 70 c2 1b 3d f0 0e 15 bd 08 d8 9d 3d 7a 66 27 3e
       0.038027227 -0.0363912 0.0770722 0.16347685
000120 38 61 f4 3d 16 1d 79 3e b8 ea 63 3d 28 e7 2d 3d
       0.119326055 0.24327502 0.055643767 0.042456776
000130 38 73 4a bd 10 51 fe 3d d4 10 10 be 88 6a 62 3d
       -0.049426287 0.12417805 -0.1406892 0.055277377
000140 34 e0 69 be 72 77 05 be 40 95 25 be 3c a5 f5 3d
       -0.22839433 -0.13033846 -0.16170216 0.119944066
000150 7c 94 9a 3d 40 d7 76 be 46 bc 48 3e f8 7b 23 3d
       0.075478524 -0.24105549 0.1960307 0.039913148
000160 28 ba e8 3d 40 9f 09 bd ae 65 5b 3e c2 7f 6a be
       0.113636315 -0.03359914 0.21425506 -0.22900298
000170 28 3b ae bd e4 be d1 bd 20 7c 64 be c8 64 52 be
       -0.08507377 -0.102414876 -0.22312975 -0.20546257
000180 c8 54 67 be 8a bb 2f 3e 10 3f 25 bd 54 e8 3b 3e
       -0.22590935 0.17161384 -0.040343344 0.18350345
000190 c4 a1 06 3e 60 17 61 bd e4 1e 81 bd 36 5b 50 3e
       0.13147646 -0.054953933 -0.0630472 0.20347294
0001a0 d4 ae 85 bd 74 0a 3f be a6 4d 28 be b6 28 4e be
       -0.065274864 -0.18656331 -0.1643587 -0.20132717
0001b0 80 66 86 bc b8 37 22 3d 30 13 18 bd 4c 03 0f be
       -0.016406298 0.03960392 -0.037127674 -0.13966101
0001c0 08 dd 89 3d f8 ff bd 3d e0 09 3c 3d 18 2a bd bd
       0.067316115 0.09277338 0.045907855 -0.09236544
0001d0 e4 97 03 3e 98 b9 22 3d 60 f6 16 bc ca 2f 2f be
       0.1285091 0.039727777 -0.009214014 -0.17108074
0001e0 e8 7e 88 bd b0 48 54 3e 30 92 6f 3d f0 30 d8 3c
       -0.066648304 0.20730853 0.058489025 0.026390523
0001f0 38 a8 19 3e 58 4c ef 3d 2c a5 2d 3e f4 66 51 be
       0.15005577 0.11684483 0.1695754 -0.2044943
000200 80 a7 38 be 60 77 99 bd c0 28 6d bc b8 86 f8 bd
       -0.18032646 -0.07493472 -0.014475048 -0.121350706
000210 20 c1 d5 bd 00 f5 09 be fa 7f 03 3e 06 13 54 3e
       -0.10437226 -0.13472366 0.12841788 0.20710382
000220 68 6b a5 3d 98 b2 ab bd cc 19 ce 3d 18 60 06 bd
       0.08077127 -0.083836734 0.10063514 -0.032806486
000230 a4 4d f1 3d 9c a9 ed bd 30 9e 52 3d e0 30 41 3c
       0.11782387 -0.11604616 0.05142039 0.011791438
000240 42 51 01 3e a4 21 bf bd 58 b5 57 3e 00 c8 ff bb
       0.12628654 -0.09332588 0.21065271 -0.0078058243
000250 b8 ae 5d 3e 40 d3 36 3c 58 86 5e 3d c6 96 1e 3e
       0.21648681 0.011158764 0.05432734 0.15487203
000260 0e f5 49 3e d8 af 46 3e 4e 13 41 3e 6a e2 5c 3e
       0.19722387 0.19403017 0.1885502 0.21570745
000270 6a 52 1d be 74 bb 0a be 14 5a ab 3d bc 4f 5b 3e
       -0.1536347 -0.1354807 0.083667904 0.21417135
000280 bc 3c c5 bd 5e 88 5c be 1e 42 36 be 58 ad 53 3d
       -0.09630725 -0.21536395 -0.17798659 0.051678985
000290 00 6d 0f bc d8 1b 0d 3d 1c 05 3f be 70 40 4f 3e
       -0.008754015 0.034450382 -0.18654293 0.20239425
0002a0 80 00 c3 3b 58 9c 9b bd 58 6b 36 bd 5c 5b d0 bd
       0.0059509873 -0.075981796 -0.044535965 -0.101736754
0002b0 f8 f4 5c 3d c6 9c 28 be a4 09 8d 3d 4c 1e f5 3d
       0.053944558 -0.16466054 0.068866044 0.11968669
0002c0 c4 01 94 bd f4 ba ef 3d 5c 4e 2d 3e dc 10 18 3e
       -0.07226899 0.1170558 0.16924423 0.14850181
0002d0 10 20 bd bd e4 9e 93 3d 2e 3b 3d 3e 00 64 35 bd
       -0.09234631 0.0720804 0.18479607 -0.04428482
0002e0 a4 64 b5 bd 40 be 18 be d4 af af 3d cc 92 ca 3d
       -0.08857086 -0.14916325 0.085784584 0.098912805
0002f0 a6 6b 66 3e e0 47 9b 3c 78 1e 4b 3d 7c b8 5b be
       0.22502002 0.018955171 0.049589604 -0.21457094
000300 a4 fc 60 3e c0 fc 73 bd 14 af 08 3e 0a 43 2c be
       0.21971375 -0.059567213 0.13348037 -0.16822448
000310 0c 41 ab bd c0 e9 0d be 74 ed 11 be f4 d3 5b be
       -0.08362016 -0.138587 -0.14250737 -0.21467572
000320 f2 8b 1a 3e bc 4e 87 3d ea 1c 1e 3e 40 a4 97 3b
       0.15092447 0.06606814 0.15440717 0.0046277344
000330 88 dc 1b 3e c6 62 33 be 94 61 02 3e ac ee db bd
       0.15220845 -0.17518148 0.12732536 -0.107388824
000340 54 a0 44 be 78 db f7 3d b8 9c 3a 3d b0 0c 4e be
       -0.19201785 0.12102407 0.045559615 -0.20122027
000350 72 e3 12 be 20 91 6f be 10 f7 bf bd ee 66 32 3e
       -0.14344576 -0.23395205 -0.09373295 0.17422077
000360 a6 98 4f 3e 8e e9 1d be f0 44 02 be 90 ad 45 3e
       0.20273075 -0.15421125 -0.1272161 0.1930449
000370 08 0b ab 3d 3c d7 91 bd 1e 76 2d 3e b0 c3 5e 3e
       0.083517134 -0.07121131 0.1693959 0.21754336
000380 c0 0c 93 3c 00 b5 ee 3b 3c ad 52 be d4 78 3c 3e
       0.017950416 0.0072847605 -0.20573896 0.18405467
000390 48 b3 5c bd 54 16 e1 3d 62 d7 14 be 50 79 3e bd
       -0.053881913 0.10990587 -0.14535287 -0.04650241
0003a0 1c b3 28 be e0 c6 33 3c de 55 70 3e a4 78 52 be
       -0.16474575 0.010972708 0.23470256 -0.20553833
0003b0 38 c2 c8 bd 80 ab 39 bc 10 14 fa bc c4 7f 23 be
       -0.09802669 -0.011332393 -0.030527145 -0.15966707
0003c0 b0 41 bb 3d b8 ad 12 3d 76 bb 51 be 5a a2 62 3e
       0.09143388 0.035810202 -0.20481667 0.22132245
0003d0 30 91 6e 3d 3c 3c 0b be 30 e2 96 bd 88 1f 79 bd
       0.05824393 -0.13597196 -0.073673606 -0.060821086
0003e0 ba 37 28 3e 3c 86 e2 bd 7a 1d 2c 3e f8 22 14 bd
       0.16427508 -0.110607594 0.1680812 -0.03616616
0003f0 4e 56 6d be e8 c4 c1 bd a8 66 d9 bd 58 38 a2 bd
       -0.23177454 -0.09461385 -0.10615283 -0.07920903

bias f4 [16]
000000 24 dd 42 be f8 74 06 bd 16 3e 12 be dc a8 1f be
       -0.19029671 -0.032826394 -0.14281496 -0.15591758
000010 c8 b9 07 3d c4 5b f1 bd 8a 50 0a be ee 58 7e 3e
       0.03313616 -0.11785081 -0.13507286 0.24838611
000020 4a 99 06 3e e0 1f 50 bc f8 15 2f 3e 28 d1 86 3d
       0.13144413 -0.012702912 0.17098224 0.06582862
000030 f0 be e4 3d f0 b9 5b bd 18 ac c8 3d f8 2a e0 bd
       0.11169231 -0.05364412 0.09798449 -0.10945696

weight f4 [1, 16]
000000 cc 85 e2 3d 54 e3 64 3e 4c e5 19 3e 74 3b 49 be
       0.11060676 0.22352344 0.15028876 -0.19651586
000010 92 83 5f be a0 9d c8 3c 5a dc 1b be 9e 34 1c be
       -0.21827534 0.024489224 -0.15220776 -0.15254447
000020 08 f3 62 3d b0 88 9d 3d da c3 39 3e d6 e3 78 be
       0.055407554 0.07692087 0.18141118 -0.24305663
000030 3c d6 53 3e 00 7b 83 3d 2a 22 35 be c4 39 de 3d
       0.20687193 0.06419945 -0.17688814 0.10850862
