DeepFM_Model/debug/nnn.pt (torch, 187434 bytes, 2 tensors)

weight f4 [2625, 1]
000000 7d 19 40 bf 61 7e 4d 3f 01 4d 8c 3d 2f 02 b1 be
       -0.7503889 0.80270964 0.06850625 -0.34571978
000010 9f d6 05 40 21 b0 44 bf 27 a2 a1 bf e0 ab 9d be
       2.0912244 -0.7683125 -1.262761 -0.30795193
000020 d2 65 f1 be 55 a2 0a bf 83 88 ad bf a4 60 e6 bd
       -0.47147995 -0.5415395 -1.3557285 -0.112489015
000030 f7 49 86 bf 34 a2 b4 3e ac 67 c9 3e 75 1e 2d 3f
       -1.0491322 0.3528 0.39336908 0.676246
000040 80 e6 aa 3e 3a af 2f 3f 53 b2 1d 3f 45 f7 98 3f
       0.33378983 0.6862675 0.61600226 1.1950461
000050 db 7a d2 bf 03 fe 52 3f ee 9b a8 3f 31 de ad bd
       -1.6443743 0.8241884 1.3172586 -0.08489645
000060 8d da 80 3c 70 64 be bf 5e 3c 7a 3f 0b dc 89 be
       0.015729213 -1.4874401 0.97748363 -0.26925692
000070 b0 58 9c bf b9 ef 6c 3d 96 af ec be f0 57 67 be
       -1.2214565 0.057845805 -0.4622771 -0.22592139
000080 fc 9c b9 bd cb 77 4c 3f 93 45 32 3d ba e7 ac 3f
       -0.090631455 0.7987029 0.043523382 1.3508217
000090 98 44 d5 bf 32 c0 f3 3e f8 d1 02 3f f4 d1 c5 be
       -1.6661558 0.4760757 0.51101637 -0.38636744
0000a0 9f 0d ba bf d7 7f 4a 3e 01 da 3c bd ad e7 26 3f
       -1.4535407 0.1977533 -0.046106342 0.6519726
0000b0 3d d6 a1 3e 75 00 81 3f 66 e4 d5 3f c3 45 73 bf
       0.31608763 1.0078264 1.6710327 -0.9502832
0000c0 11 69 f1 3e 84 d4 9d 3f c6 86 54 3f f6 36 9e 3f
       0.47150472 1.233048 0.8301815 1.2360523
0000d0 da 34 1a c0 7c b4 a5 3f 58 0c 0e 40 f0 c1 54 3d
       -2.4094758 1.2945704 2.2195034 0.051942766
0000e0 3f cf db be b6 db 1a bf c6 e5 eb 3e bc 8b ae be
       -0.42931554 -0.604915 0.4607374 -0.34090984
0000f0 02 e8 68 be aa bc 01 3f a7 ef e0 bf e5 cb 5b bf
       -0.22744754 0.50678504 -1.7573136 -0.85857993
000100 e1 0f 2f 3f f2 4c dd 3e 8d 78 85 3f be df a4 3f
       0.68383604 0.43222767 1.0427414 1.2880781
000110 b5 af 6e 3f 75 e6 74 3f cf 47 43 3f a3 b5 3e c0
       0.9323686 0.9566415 0.76281446 -2.9798362
000120 9c 04 6c bf 65 4c a5 be bd d4 ac bf e8 0c 73 3f
       -0.92194533 -0.32284847 -1.3502423 0.9494157
000130 63 5f 9e bf 54 c3 23 3e 32 4c 81 3f 6d 04 39 3e
       -1.237286 0.1599248 1.0101378 0.18068095
000140 5b 07 b0 bf 74 e6 aa 3f 61 b7 9b bf ee e4 ff 3f
       -1.3752245 1.3351579 -1.2165338 1.9991739
000150 04 ab 7c 3f d7 b1 11 40 a0 d2 6c 3f 78 1c 62 3f
       0.9869845 2.2764795 0.9250889 0.8832469
000160 e1 e8 5c bd ef c0 19 c0 fd 5d 70 be 90 4d 4d 3f
       -0.053933028 -2.4024007 -0.23473354 0.80196476
000170 ab 66 97 bf 49 88 78 3f 18 cc 80 3f 12 c4 0b 3f
       -1.1828207 0.97082955 1.0062284 0.54596055
000180 5f 00 3f 3e c9 80 5f be f2 85 50 3d cc c4 ae 3f
       0.18652485 -0.21826471 0.05090899 1.3653808
000190 b8 38 61 3f 92 c2 1c bf ab 84 48 bf a3 3c 86 bf
       0.8797717 -0.6123439 -0.78327435 -1.0487255
0001a0 5c 36 26 3f d7 d5 73 3f b2 eb 67 3f a8 53 be 3f
       0.64926696 0.9524817 0.9059402 1.486928
0001b0 5e 4b 2d bf f8 64 fc be 0d 19 be 3e 5c 5e 90 be
       -0.67693126 -0.49295783 0.37128487 -0.2819699
0001c0 23 a4 3e 3d f0 a3 f0 bf 4b 26 a5 be d8 47 a5 3f
       0.04654325 -1.880003 -0.32255778 1.291255
0001d0 78 89 5b bf 79 5c b1 3f 6e f6 ce 3e 0d 9d eb 3f
       -0.85756636 1.3856345 0.40422386 1.8407303
0001e0 f5 01 8a bf e0 37 c8 bc b5 c9 91 bf 4c 56 51 bf
       -1.0781847 -0.024440706 -1.1389681 -0.81772304
0001f0 43 a3 4d 3b 2d bc 1e 3e 50 64 96 3f 0d af e0 be
       0.003137783 0.15501471 1.1749363 -0.43883553
000200 f6 9b 54 bf cc f4 ee bd b3 e7 09 bf 0b 9c 3b 3f
       -0.8305048 -0.11667785 -0.5386917 0.7328498
000210 b0 ef e3 bf d7 be 82 3e db 0b 91 bf 7a b6 bf bc
       -1.7807522 0.25536224 -1.1331743 -0.023402441
000220 f4 b4 46 bf 4c 69 95 3e bd 20 99 be f1 2a 01 bf
       -0.7761986 0.29181898 -0.2990779 -0.5045615
000230 67 8e 15 3f 1b 92 80 3f 31 46 80 3e 66 a8 49 3b
       0.58420414 1.0044588 0.25053552 0.003077054
000240 f3 8f ba bf 91 4a b3 3f f4 7e 06 3f ed 8f 83 3f
       -1.457518 1.4007131 0.52537465 1.0278298
000250 11 ea 85 3e 3a d4 34 be c3 fc dc bf e0 a5 d0 bf
       0.2615514 -0.17659083 -1.7264637 -1.6300621
000260 c3 d7 89 bd 5a f2 93 3f 9e 7d d5 be 55 af 69 be
       -0.067306064 1.1558335 -0.416974 -0.2282079
000270 18 c8 ef bf 3e ac 58 3f c5 41 2e bf 76 cf 4e bf
       -1.8732939 0.8463782 -0.68069106 -0.8078531
000280 6a 3a 80 bf bb 5b 1f 3f 67 5c fc 3f 36 92 24 3f
       -1.0017827 0.62249345 1.9715699 0.642856
000290 fd cb c6 bd 03 f8 51 3f 01 17 1a 3d db ea 56 bf
       -0.097068764 0.8201906 0.037619594 -0.8395211
0002a0 20 e7 44 bf 2c b3 21 3e 4a ff 31 be 29 54 02 bf
       -0.7691517 0.15791005 -0.17382541 -0.5090967
0002b0 34 83 ab 3f 06 c1 c5 3e 8f 5d 38 be 44 2e 55 be
       1.3399415 0.38623828 -0.1800444 -0.2081843
0002c0 e4 0e ca 3e 63 ac 08 3f e8 8c 66 3f 70 6a 83 be
       0.39464486 0.5338804 0.90058756 -0.25667143
0002d0 b8 bf b7 3f ff ee 8a 3d 8e 82 3c be 27 5a 28 3e
       1.4355383 0.06783866 -0.18409178 0.1644064
0002e0 7c d1 e9 be 5f 67 24 be 3b ed dc 3d 4c 1a 3c bf
       -0.45667636 -0.16055058 0.107874356 -0.73477626
0002f0 5f 55 b2 3e 72 b0 6d bf fb 8c cb 3f a3 41 01 be
       0.34830758 -0.9284736 1.5902399 -0.12622695
000300 68 b8 9e be 1c 33 33 bf 9a ad 08 bf cc 83 b1 3f
       -0.31000066 -0.6999986 -0.53389895 1.3868346
000310 8b 4d 2b bf 0c 64 3d c0 d4 8a 61 bd e8 cf 40 3f
       -0.66915196 -2.9592314 -0.055064037 0.7531724
000320 15 45 93 bf 47 7c ae 3e 9b 61 03 c0 a3 7d 59 bf
       -1.1505457 0.3407919 -2.0528324 -0.8495733
000330 14 20 43 bd b3 6c 58 3f 56 b6 78 3f 20 d0 3a 40
       -0.047638014 0.8454086 0.9715322 2.918953
000340 dd 68 3e bd 95 fe 2d bd 90 b0 93 3f 71 7e 1c bf
       -0.046486724 -0.042479116 1.1538258 -0.61130434
000350 4b 86 ea 3f 3b 88 a4 3f 47 eb 80 be 86 cb 3b bf
       1.8322233 1.2854074 -0.25179502 -0.7335743
000360 04 e7 23 bf d2 36 51 bf 03 58 98 bf e6 7a af be
       -0.64024377 -0.81724274 -1.1901859 -0.34273452
000370 c5 75 a9 3f 6d 66 e2 be be be d8 3f 7e 41 84 be
       1.3239065 -0.4421877 1.693321 -0.25831217
000380 0e 72 ee bb 64 12 ff be ea 91 a6 bf b9 bd 95 bf
       -0.00727678 -0.49818718 -1.301328 -1.1698524
000390 6a e8 c3 3b f8 d5 89 be 38 50 b7 bf 88 18 02 3f
       0.0059786336 -0.26921058 -1.4321356 0.5081868
0003a0 bd 7b 18 40 dd ea 90 bd bb ba 1d 3e a9 da 99 3e
       2.3825524 -0.070760466 0.15403263 0.30049637
0003b0 30 43 3b bf fd 0b 1d 3f 74 f0 bb bf 68 20 fc bf
       -0.73149395 0.6134642 -1.4682755 -1.969739
0003c0 2b fa cb be 9e 97 bc 3f b9 80 9f bf f3 fd 8d 3e
       -0.398393 1.473377 -1.2461158 0.2773281
0003d0 65 ad 9a bb 2e e7 8e be 46 bf 07 3f 1a 6a 1c 3f
       -0.0047203773 -0.2791075 0.53026235 0.610994
0003e0 44 5a 10 3f 47 07 16 bf 41 40 68 bf db 45 fa be
       0.56387734 -0.58604854 -0.90723044 -0.4888142
0003f0 e4 b9 49 3f db 32 f3 be 05 25 8a 3f 53 59 c6 bc
       0.7879927 -0.47499737 1.0792547 -0.024212515

weight f4 [2625, 16]
000000 1e b7 bc bc c0 fa ea 3a 9e 74 94 3c 99 19 28 3d
       -0.023036536 0.0017927513 0.018122014 0.041040037
000010 ff 6c ab bc d0 48 21 3c 6c b6 e9 bc 84 0a 31 bc
       -0.020925997 0.00984402 -0.028529368 -0.01080573
000020 94 95 58 3c d4 7e 37 3c 03 17 3e bd 00 41 63 3b
       0.013219256 0.011199672 -0.046408664 0.0034676194
000030 e9 40 1c 3d 10 c0 39 3b 43 a4 39 bd da 15 3d bd
       0.03814784 0.0028343238 -0.045322668 -0.046163417
000040 64 f3 4e bc 43 fe 33 3d c0 ff ac 3a e9 30 0d bd
       -0.012631271 0.043943655 0.0013198778 -0.034470472
000050 76 2f a0 3c e6 7c d0 3c 56 96 be 3c d4 f5 4c bc
       0.019553881 0.025450181 0.023265045 -0.012509782
000060 5e b8 f9 bc 69 e2 2c 3d f0 2b 59 bc 9a da dd bc
       -0.030483421 0.04220811 -0.013255104 -0.027081776
000070 51 31 24 bd 11 6d 29 3d b5 ff e6 bc 1b 52 19 3d
       -0.040086094 0.04136378 -0.028198102 0.037431818
000080 93 fd 28 3d de 10 81 3c 10 31 52 3b 32 de 9a 3c
       0.041257452 0.015755113 0.00320727 0.01890478
000090 46 9d a1 3c ff b2 22 bd a8 11 48 3c 7a 92 fe 3c
       0.019728314 -0.039721485 0.012211241 0.031075705
0000a0 3a 86 df 3c c8 80 de 3b 90 29 f6 3b a0 22 b0 bb
       0.027285684 0.0067902543 0.007512279 -0.0053752214
0000b0 15 ff 18 3d f0 73 fa bb 30 0a 25 bd e4 b3 51 3c
       0.03735264 -0.0076432154 -0.04029292 0.012799237
0000c0 0e 13 f5 3c 72 6f f0 bc d8 7b 1e 3c 69 bc 41 3d
       0.029916313 -0.029350016 0.009673081 0.047298823
0000d0 ea bf 38 bd c2 94 8f 3c a7 7c 33 3d 27 cd 34 3d
       -0.0451049 0.017526988 0.04382005 0.04414096
0000e0 c0 80 22 bb f0 d9 f6 3b 80 1f cd 39 b4 d7 81 bc
       -0.002479598 0.0075333044 0.00039124116 -0.015849926
0000f0 30 aa 8f bb 72 41 82 3c b4 b8 69 bc 85 75 21 3d
       -0.0043843016 0.015900347 -0.014265228 0.039418716
000100 6e 79 10 bd 2c 9c 0e bc 8c 90 7e bc 72 9c 31 bd
       -0.035272054 -0.008704226 -0.015537392 -0.04336209
000110 bf 07 30 bd 9d 04 1c 3d 3b 36 ef bc 7f 70 34 3d
       -0.042976137 0.038090337 -0.029200664 0.044052597
000120 e7 84 f9 bc 07 d1 a4 bc 5f 70 03 3d 3c 9c 4c 3c
       -0.03045888 -0.020119203 0.032089587 0.012488421
000130 6c 5a 06 bc 3f a0 3b 3d 16 e4 15 bd ba 6a 11 bd
       -0.008200269 0.04580712 -0.036594473 -0.035502173
000140 63 d4 26 3d 5d 9e 20 3d 8a ac 35 bd 25 1b b8 bc
       0.04072989 0.039213527 -0.044354 -0.022473881
000150 5c 64 81 bc f0 3f ad bc ca 1c 9c bc b4 70 12 3c
       -0.015794925 -0.021148652 -0.019056696 0.008938003
000160 70 9c 0f 3b 28 fb 16 bd 70 c5 6f bb 51 13 05 bd
       0.0021913312 -0.036860615 -0.0036586188 -0.032489125
000170 3b 27 15 bd 1d 4b 42 3d 5c 40 4c bc 80 54 e9 ba
       -0.036414366 0.047434915 -0.012466516 -0.0017801672
000180 b5 ac 24 3d 6a b3 a2 3c 30 e6 04 3b 39 5f 0b 3d
       0.04020377 0.019860942 0.0020278804 0.03402636
000190 e4 8b 1d bc 03 8e 01 bd f4 0c 3a bc 32 35 d2 3c
       -0.009615872 -0.031629574 -0.011355627 0.025660131
0001a0 c8 7e ad bb f5 ce 1a 3d 97 61 ab bc 80 b3 3e 3b
       -0.0052946545 0.037795026 -0.020920558 0.002909869
0001b0 8a 5f b6 3c 90 b6 0e 3c 31 c7 2c bd 36 8e cb bc
       0.022262353 0.0087105185 -0.04218215 -0.024848085
0001c0 d0 c9 2a bb a4 1a 38 bc da 6e bd 3c 93 42 9f bc
       -0.002606023 -0.01123682 0.023124147 -0.019440925
0001d0 28 fd 70 3c 40 1d 54 bb b0 c0 fb bb 30 64 2b bc
       0.014708795 -0.0032366067 -0.0076828822 -0.010460898
0001e0 fc 49 14 3c 99 83 95 bc 53 25 ce bc cb 6e bd bc
       0.009050842 -0.018251227 -0.025164282 -0.02312412
0001f0 9a 37 fd 3c 9a e3 a4 3c 92 7a a4 3c 40 16 c3 3a
       0.030910302 0.02012806 0.020077977 0.001488395
000200 47 07 36 3d e0 1c 0c 3c c7 d6 20 bd d0 fe 9f bb
       0.044440534 0.008551806 -0.039267328 -0.004882671
000210 26 b8 b4 bc f2 14 84 3c 18 bd cd bc 58 5f ea bc
       -0.022060465 0.016123269 -0.025114581 -0.028609917
000220 d5 f1 eb bc 9c d0 5f bc 89 2e 2c 3d c6 1c 87 3c
       -0.028801838 -0.013660576 0.042036567 0.016493212
000230 e0 f3 ce bb 00 ea 84 b8 be 6a d7 3c 3c 79 2c bd
       -0.0063156933 -6.3378364e-05 0.026296016 -0.042107806
000240 45 f2 ea bc 20 57 25 3b 85 b2 1d 3d 52 e7 d6 3c
       -0.028679976 0.0025228932 0.038500328 0.026233349
000250 66 50 fa 3c b9 0a 26 3d 68 3d f5 bb c7 5d 1d bd
       0.030555915 0.04053757 -0.007484127 -0.03841951
000260 34 e6 35 3c 5c 72 6d bc a4 d1 78 bc 51 fc 02 3d
       0.011102248 -0.014492597 -0.015186701 0.03197891
000270 00 56 1a 3a ec 29 80 bc e8 38 e1 bc c0 55 0a bd
       0.0005887449 -0.01564499 -0.027492955 -0.033773184
000280 39 74 26 3d 7f 80 36 bd 4e 37 bb 3c ca 3e cc 3c
       0.040638182 -0.044556137 0.02285352 0.024932284
000290 06 d6 32 bd ee 94 b4 3c 50 18 1d bb 33 0e a7 bc
       -0.04366114 0.022043671 -0.002397079 -0.020392513
0002a0 8c 0d 4e bc 0a a8 b3 3c 19 29 16 bd f8 fc 0f bd
       -0.012576472 0.021930713 -0.036660288 -0.03515336
0002b0 64 fb 65 bc 3c 2d 04 bd e5 40 28 3d 60 65 65 bc
       -0.014036987 -0.0322697 0.041077513 -0.01400122
0002c0 9d b5 29 bd 22 2c b8 3c e0 07 49 bb 60 1c 2a bc
       -0.041432966 0.022481982 -0.003067486 -0.010382742
0002d0 f9 28 88 bc 26 17 a5 3c 2f 9c 36 bd ff 3e 38 bd
       -0.0166211 0.02015264 -0.044582542 -0.044981953
0002e0 92 6d b0 3c e6 bb 02 bd 55 70 1f bd 26 9c ed 3c
       0.021536622 -0.031917475 -0.038925488 0.029005121
0002f0 d3 10 15 3d 24 af ae bc 2a db 0e bd 7d e3 01 3d
       0.036392998 -0.021323748 -0.03487698 0.03171109
000300 84 e8 04 3c d0 21 68 3b 00 80 b5 35 a7 21 1c 3d
       0.008112077 0.0035420544 1.3522804e-06 0.03811803
000310 9c 8c e3 bc f4 fe 73 3c 5a 3a d1 3c 94 cc 3a 3c
       -0.027777009 0.0148923285 0.02554052 0.011401314
000320 4e 28 99 3c b6 39 9d bc 37 99 32 3d fe d0 ab bc
       0.018695977 -0.019192558 0.04360315 -0.020973679
000330 32 05 35 bd a0 ef d6 3a 70 12 15 bc 70 9a b9 3b
       -0.044194408 0.0016398318 -0.009098634 0.0056641623
000340 55 be f7 bc d0 16 1a bb 37 bf 19 bd cf fa 0e bd
       -0.030242125 -0.0023512132 -0.037535872 -0.03490716
000350 00 bc 1b 3c dd 55 03 bd 3f b7 3c 3d 30 73 ca bb
       0.009505272 -0.032064307 0.046073195 -0.006178282
000360 4e e9 f2 3c 40 6f d2 bb 6e da ce 3c 30 ae ef 3b
       0.029652264 -0.0064219534 0.02525064 0.007314466
000370 53 a4 c1 bc 80 e8 3d 3a 2a 1a a9 3c 42 2f a2 bc
       -0.023637926 0.0007244423 0.020642359 -0.019797925
000380 00 d8 c8 38 38 33 49 bc 10 29 a5 bc 90 53 1c bd
       9.576976e-05 -0.012280278 -0.020161182 -0.03816563
000390 3c ca 6e 3c d4 6f 2f bd 69 4c 30 bd 00 80 19 bc
       0.014574584 -0.042831257 -0.04304162 -0.0093688965
0003a0 18 f9 93 3b 30 a9 49 bb de fe 15 bd da cd 26 bd
       0.0045157783 -0.003077101 -0.036620013 -0.04072366
0003b0 00 89 9d ba 0d 99 8a bc 89 1b 2c bd 8e cf 93 3c
       -0.0012018979 -0.016918683 -0.042018447 0.018043306
0003c0 f5 3f 8b bc 5a 60 d5 3c 6c 57 45 bc 12 c4 97 bc
       -0.01699827 0.02604692 -0.012044769 -0.01852611
0003d0 f4 48 ed bc 83 81 3b 3d 63 f9 8f bc 3c a3 20 bd
       -0.02896545 0.04577781 -0.017574972 -0.039218172
0003e0 cc a1 49 3c 92 08 d2 3c 4b f8 0b bd ef a3 2e bd
       0.012306642 0.025638852 -0.034172338 -0.042636808
0003f0 38 55 75 bc 63 49 16 3d 0f 57 14 3d 00 ec 19 3b
       -0.014973931 0.03669108 0.036215838 0.0023486614
