DeepFM_Model/DeepFM_Model.pt (torch, 198989 bytes, 7 tensors)

weight f4 [2625, 1]
-1.5034087 -0.71049565 2.5819676 0.24659128 -0.15864725 -1.0514942 -0.60847914 0.17957443
0.14771229 0.8613521 -0.55759126 -0.12719476 0.42086503 0.31298512 1.7014732 0.12931526
0.5255852 0.88107497 1.9237965 -1.2950243 -0.18306045 0.16346748 1.9558489 -0.5007794
-0.5489347 0.26281938 1.301882 0.8655691 0.61091626 0.097714216 0.54807264 -0.69629556
-0.010363365 0.283862 -0.3937397 1.6188276 -1.0173196 1.1958851 -0.9671864 -0.6140941
1.2913038 -0.1968038 -1.0776339 -0.46747056 -0.14253226 -1.7594903 1.2761182 -0.1276669
1.3878446 -0.28532922 0.82624906 0.37870544 -0.34956342 0.5246766 -0.9705056 0.5341724
0.31214997 1.4836853 -1.4793053 1.4533045 -0.18417063 1.302867 0.05523797 -0.3124
0.57773125 0.8171231 -0.8742962 0.43056223 0.16888969 -2.0058994 -1.0669076 1.0076385
-0.80610096 0.2878623 0.9375087 -1.2301313 -0.347859 -0.21846013 0.5890686 0.42926803
0.89314955 1.1879618 -0.25882605 0.61737376 0.04160683 1.1732488 -0.7225503 2.758213
-1.0022769 0.7468731 0.89966875 -0.6910991 -0.08529429 0.080724314 2.1881483 -2.4290173
0.7095664 1.4220359 0.3352132 -0.46687767 0.097106285 0.39552015 -0.65271056 -0.11979271
1.0437948 -0.5186076 -1.0101635 0.36592567 2.0222461 1.1236069 -0.9433675 -1.3709917
0.65349585 -0.92596644 0.2792695 -0.29782507 -1.9940096 0.4340101 0.9759382 1.6781526
-0.77403057 -0.4277719 -1.2957097 0.5950228 -1.7526824 -1.2595025 -0.36305708 0.38974643
0.2649055 0.8540094 -0.28513846 0.15612377 1.005946 -0.68527186 -0.7626713 -0.26402867
1.1817483 1.2749925 -0.7099393 0.0093384525 0.123155706 1.1066294 -1.308436 0.6110406
1.7830548 0.7767424 0.5153576 -0.28560567 1.0564462 -0.8964938 -0.89933 0.18060756
1.1426977 -0.15918873 -0.6053555 2.4312897 0.7906361 -0.99610436 -0.7495175 -0.035723213
0.5067032 0.97340834 -0.6233975 0.5160701 -1.3657799 0.2426921 -0.14072417 0.8993908
-0.17338583 1.3683047 -0.6355354 0.34681547 0.6215354 -0.41432384 -0.645291 -0.72463685
1.406986 -0.8717273 0.7990068 0.24812485 1.4586068 -1.2385855 0.34562728 0.3043681
0.067182966 0.7262014 -1.0803468 -0.21205276 -0.208652 -0.15079893 0.3833195 -0.18724948
-1.7028147 -0.34437406 -0.5318878 -0.7382972 1.8426014 0.49864453 -1.4115733 0.87409973
-0.043271378 -0.893864 -0.18552254 -0.7797879 1.385366 -0.17817937 0.15288839 -0.35881945
0.71217436 -2.287045 0.5469314 0.1279898 -0.59044904 0.34582776 -0.23278554 0.8540771
1.3866954 -0.37775847 0.47295856 -0.7232364 0.17559175 0.6025236 -1.3889314 0.5087701
-0.22939922 2.176623 0.62022686 -0.025530826 0.62923336 0.31876072 -0.45308384 -1.0509363
0.5755988 -0.21868582 0.26032725 -0.18522288 1.4815967 1.1111281 1.3941443 -1.026146
-0.4491 -0.12757279 -1.420536 -0.7313205 -1.8352249 -1.0193508 -0.17121986 1.2866945
0.2686756 -0.92995936 -0.337887 -0.21788381 -0.064492494 0.558568 0.3797563 -0.37863505
00000000: b26f c0bf 0be3 35bf f53e 2540 6d82 7c3e
00000010: 6d74 22be 5d97 86bf 4ac5 1bbf 5ce2 373e
00000020: e441 173e 9281 5c3f 4dbe 0ebf 583f 02be
00000030: 9f7b d73e 963f a03e e0c9 d93f 386b 043e
00000040: c08c 063f 218e 613f f73e f63f 5bc3 a5bf
00000050: 3374 3bbe 0564 273e 4259 fa3f 1433 00bf
00000060: fc86 0cbf 4390 863e 12a4 a63f f095 5d3f
00000070: 0265 1c3f 641e c83d 7d4e 0c3f 6d40 32bf
00000080: 1acb 29bc 5c56 913e 4098 c9be be35 cf3f
00000090: 8737 82bf c312 993f 8799 77bf 4535 1dbf
000000a0: 7149 a53f ef86 49be e8ef 89bf 4d58 efbe
000000b0: faf3 11be fa36 e1bf d757 a33f 1dbb 02be
000000c0: e4a4 b13f ac16 92be 0f85 533f aee5 c13e
000000d0: faf9 b2be 3551 063f 0e73 78bf 86bf 083f
000000e0: 1fd2 9f3e 66e9 bd3f e059 bdbf e205 ba3f
000000f0: 3a97 3cbe 59c4 a63f 3641 623d e5f2 9fbe
00000100: 32e6 133f fb2e 513f e0d1 5fbf a772 dc3e
00000110: 6bf1 2c3e a860 00c0 6e90 88bf 4cfa 803f
00000120: a25c 4ebf b062 933e 9200 703f f174 9dbf
00000130: 931a b2be 03b4 5fbe 33cd 163f 05c9 db3e
00000140: 73a5 643f 220f 983f d984 84be 350c 1e3f
00000150: ec6b 2a3d 042d 963f 0ef9 38bf 9086 3040
00000160: 9c4a 80bf 1333 3f3f b150 663f dfeb 30bf
00000170: c6ae aebd ca52 a53d 9f0a 0c40 0575 1bc0
00000180: 25a6 353f 4605 b63f 11a1 ab3e 970a efbe
00000190: a9df c63d 9e81 ca3e 0a18 27bf e155 f5bd
000001a0: 119b 853f 78c3 04bf 0a4d 81bf 9c5a bb3e
000001b0: 7b6c 0140 5ad2 8f3f 8880 71bf a87c afbf
000001c0: 814b 273f 230c 6dbf 69fc 8e3e 877c 98be
000001d0: b53b ffbf 9236 de3e 16d7 793f b4cd d63f
000001e0: de26 46bf eb04 dbbe d1d9 a5bf 6a53 183f
000001f0: e657 e0bf 6137 a1bf 9ee2 b9be d88c c73e
00000200: b2a1 873e 5ca0 5a3f abfd 91be e9de 1f3e
00000210: d7c2 803f fa6d 2fbf 6d3e 43bf c42e 87be
00000220: 8743 973f f432 a33f 95be 35bf 4f00 193c
00000230: 0f39 fc3d 08a6 8d3f d57a a7bf 286d 1c3f
00000240: 243b e43f 97d8 463f 7aee 033f e83a 92be
00000250: a139 873f 9e80 65bf 7e3a 66bf 30f1 383e
00000260: eb43 923f 5f02 23be 94f8 1abf 409a 1b40
00000270: 2167 4a3f b200 7fbf 61e0 3fbf 8152 12bd
00000280: 4db7 013f 4a31 793f fb96 1fbf 2c1d 043f
00000290: e0d1 aebf 4784 783e ff19 10be 7a3e 663f
000002a0: 0e8c 31be 9c24 af3f 73b2 22bf cc91 b13e
000002b0: f21c 1f3f 4122 d4be ca31 25bf cd81 39bf
000002c0: 1e18 b43f 8529 5fbf b68b 4c3f 7114 7e3e
000002d0: a1b3 ba3f f889 9ebf 0ff6 b03e 23d6 9b3e
000002e0: 3997 893d 56e8 393f ce48 8abf 5c24 59be
000002f0: dfa8 55be 096b 1abe 7442 c43e 54be 3fbe
00000300: d5f5 d9bf cc51 b0be cd29 08bf 0c01 3dbf
00000310: 5dda eb3f 564e ff3e 6fae b4bf 00c5 5f3f
00000320: 543d 31bd 45d4 64bf 9ff9 3dbe 2ea0 47bf
00000330: ac53 b13f a774 36be c68e 1c3e 2fb7 b7be
00000340: 0f51 363f f25e 12c0 b203 0c3f c20f 033e
00000350: ab27 17bf 5610 b13e 555f 6ebe cca4 5a3f
00000360: 3c7f b13f 8f69 c1be a027 f23e 0526 39bf
00000370: 53ce 333e fd3e 1a3f 81c8 b1bf c23e 023f
00000380: a1e7 6abe cb4d 0b40 30c7 1e3f 0626 d1bc
00000390: 7015 213f 9b34 a33e 9bfa e7be 1585 86bf
000003a0: 715a 133f 2def 5fbe 9d49 853e 11ab 3dbe
000003b0: f6a4 bd3f 7239 8e3f 5273 b23f c158 83bf
000003c0: 6ff0 e5be 71a2 02be 20d4 b5bf d237 3bbf
000003d0: a6e8 eabf 167a 82bf 4254 2fbe 68b2 a43f
000003e0: d98f 893e d111 6ebf 86ff acbe ef1c 5fbe
000003f0: a414 84bd 50fe 0e3f 6b6f c23e 74dc c1be

weight f4 [2625, 16]
-0.03924755 -0.006456945 0.0087859 -0.030355036 0.01113468 0.024486158 0.018454578 -0.021506583
0.034399707 0.036258306 -0.046848882 -0.039145723 -0.03170444 -0.014124196 -0.018656632 -0.006102342
0.040868383 -0.0097268075 0.03689256 -0.02649444 -0.007471647 -0.03147228 -0.0463772 -0.008294281
-0.037968945 0.003660109 -0.008289844 0.036046285 0.01519214 0.034795668 -0.03171222 -0.007487096
0.007823382 -0.0016598664 0.006919425 -0.009984035 0.0052657686 0.025281686 0.021944787 0.02175418
0.0143585615 -0.03674245 0.010734294 0.013829254 0.01645023 0.019399319 0.030973021 0.039641704
-0.013796724 -0.040053535 0.010707196 -0.01109837 0.012581531 0.031563077 0.01466269 0.016887259
0.002992034 -0.026583448 0.035066087 -0.021568034 0.046660367 -0.011131842 0.032285195 -0.046232294
0.009433746 -0.01417698 0.035429243 -0.00475261 0.022981416 0.040897023 -0.016642077 -0.036166325
-0.006162554 0.027346957 -0.01597162 0.041428585 -0.033405684 0.038305324 0.035000432 -0.024337385
-0.016295593 0.029358257 -0.008483872 0.040159184 0.0141439885 -0.025591569 0.008415349 -0.023632027
0.014626045 0.026286308 -0.016718227 -0.029634587 0.012472503 0.043190885 0.009585056 0.0158871
0.026103605 0.04400826 0.021481704 0.009678505 -0.022099705 0.034873392 -0.018767158 -0.04688956
0.04280964 -0.038935896 0.010425132 -0.013753522 0.024248574 0.0018575713 0.04734468 0.014364343
0.002023261 -0.03686581 0.025311712 -0.03701181 -0.04559012 0.00595212 -0.010708988 -0.007571265
-0.023431692 0.03146838 -0.025986275 0.0058150925 -0.013716705 0.021315593 -0.04417819 0.018520731
0.04230888 0.021776382 0.01772314 0.015858945 -0.02279166 -0.018563198 0.028008271 -0.03860247
-0.035740223 -0.022406539 -0.036825195 0.002754148 0.00705551 -0.0352721 -0.011666201 0.010597136
0.017353926 0.042901773 0.023949761 0.0071533993 -0.0023765936 0.029134396 -0.031449124 0.028417733
0.0273011 -0.03913371 -0.01888257 -0.0026162006 0.0043078065 0.0012479424 0.036027078 -0.026708571
-0.024681108 0.04346093 -0.0105440095 -0.02004354 -0.045991343 -0.02688622 0.00018332526 -0.0303125
0.035749134 -0.03132704 0.026129078 -0.04065889 0.02496491 0.04270898 0.02270462 -0.010671087
-0.02719032 0.0400696 -0.015623387 -0.00020992011 -0.006920196 0.041872133 -0.028344845 0.026567634
-0.0019152202 -0.010659594 -0.01887339 -0.01838342 -0.022316048 -0.0053243004 -0.037076175 0.018792283
0.00083428994 -0.035270095 0.031418156 0.004799772 0.04188619 -0.018567067 -0.041148487 0.009628847
-0.0074255317 -0.022691412 0.005373813 0.010320373 0.029835287 0.04361469 0.03219473 0.0063128024
0.04177915 -0.014875803 0.00063456595 -0.019709842 -0.021879334 0.027574096 -0.0049914233 -0.01589781
0.03398006 0.03157976 -0.019376332 -0.04631068 0.016532537 0.01604918 -0.043029394 0.0257424
-0.00863428 0.042867046 0.04198413 0.035843585 0.022141669 0.043764506 0.017456297 -0.026681837
0.03803915 0.02791534 -0.019974431 0.034737695 0.014365129 -0.0030091032 0.029266778 0.0055288114
-0.016151737 -0.044947542 0.021618169 -0.0025622211 0.034789074 -0.00640364 0.035049703 -0.0005643815
0.00014405698 0.019186307 -0.029674133 -0.033899385 -0.028482249 0.006096326 0.031636883 -0.043896258
00000000: 0ac2 20bd c894 d3bb bcf2 0f3c 20ab f8bc
00000010: 3c6e 363c 3297 c83c 0e2e 973c 932e b0bc
00000020: b5e6 0c3d 9783 143d 9de4 3fbd 4457 20bd
00000030: 84dc 01bd 2c69 67bc cbd5 98bc 28f6 c7bb
00000040: 9b65 273d 305d 1fbc a71c 173d de0a d9bc
00000050: b8d4 f4bb 14e9 00bd 05f6 3dbd bce4 07bc
00000060: 5385 1bbd 70de 6f3b 20d2 07bc 45a5 133d
00000070: 74e8 783c e785 0e3d ace4 01bd 5056 f5bb
00000080: a42d 003c e08f d9ba 58bc e23b 1494 23bc
00000090: 788c ac3b 8a1b cf3c 8ec5 b33c d235 b23c
000000a0: 2c40 6b3c 407f 16bd e4de 2f3c 1894 623c
000000b0: a2c2 863c 52eb 9e3c 22bb fd3c 575f 223d
000000c0: a80b 62bc 2d0f 24bd 3c6d 2f3c f0d5 35bc
000000d0: c422 4e3c 4948 013d c83b 703c 2657 8a3c
000000e0: 0016 443b 88c5 d9bc 75a1 0f3d 72af b0bc
000000f0: f11e 3f3d 5462 36bc 7b3d 043d 135e 3dbd
00000100: 0090 1a3c 9046 68bc 411e 113d c8bb 9bbb
00000110: 8643 bc3c a383 273d f754 88bc 2423 14bd
00000120: 40ef c9bb ba06 e03c ead6 82bc 05b1 293d
00000130: 66d4 08bd 0be6 1c3d 9d5c 0f3d 325f c7bc
00000140: 567e 85bc ba80 f03c f0ff 0abc f57d 243d
00000150: 30bc 673c 69a5 d1bc 88e0 093c f497 c1bc
00000160: 14a2 6f3c 6256 d73c aaf4 88bc 3cc4 f2bc
00000170: 7859 4c3c ede8 303d a40a 1d3c aa25 823c
00000180: 3ad7 d53c 0142 343d 66fa af3c 9892 1e3c
00000190: 710a b5bc 67d7 0e3d 95bd 99bc 440f 40bd
000001a0: 2959 2f3d 3f7b 1fbd 2cce 2a3c 7456 61bc
000001b0: f2a4 c63c c079 f33a 7fec 413d 6c58 6b3c
000001c0: b098 043b 9b00 17bd 825a cf3c b299 17bd
000001d0: b5bc 3abd 000a c33b c074 2fbc 6018 f8bb
000001e0: d2f3 bfbc fde4 003d 2be1 d4bc 888c be3b
000001f0: 08bc 60bc 0a9e ae3c 31f4 34bd cab8 973c
00000200: 134c 2d3d 6264 b23c 1e30 913c 9eea 813c
00000210: 93b5 babc d911 98bc 9a71 e53c a01d 1ebd
00000220: 5764 12bd eb8d b7bc 04d6 16bd f07e 343b
00000230: e831 e73b 7a79 10bd 9823 3fbc 9c9f 2d3c
00000240: d229 8e3c c5b9 2f3d 4a32 c43c 1067 ea3b
00000250: a0c0 1bbb 42ab ee3c ccd0 00bd 4ecc e83c
00000260: 8ea6 df3c ab4a 20bd 9faf 9abc 9074 2bbb
00000270: 8028 8d3b 0092 a33a 2191 133d efcb dabc
00000280: 0930 cabc 1704 323d c8c0 2cbc 5a32 a4bc
00000290: 6b61 3cbd 7d40 dcbc 003b 4039 ec51 f8bc
000002a0: af6d 123d c850 00bd a60c d63c f089 26bd
000002b0: 3683 cc3c 9def 2e3d 0aff b93c c8d5 2ebc
000002c0: 3cbe debc 0520 243d 3cf9 7fbc 001e 5cb9
000002d0: d0c2 e2bb 1d82 2b3d 7333 e8bc 5ea4 d93c
000002e0: 2008 fbba 94a5 2ebc 5e9c 9abc d398 96bc
000002f0: 25d0 b6bc 7877 aebb 30dd 17bd 46f2 993c
00000300: 40b4 5a3a 6077 10bd 53b0 003d 6847 9d3b
00000310: db90 2b3d f619 98bc 518b 28bd 50c2 1d3c
00000320: e051 f3bb 57e3 b9bc d016 b03b c816 293c
00000330: 2269 f43c 51a5 323d 9fde 033d a0db ce3b
00000340: 9d20 2b3d a4b9 73bc 0059 263a 8976 a1bc
00000350: 4a3c b3bc 12e3 e13c 188f a3bb 203c 82bc
00000360: ad2e 0b3d c759 013d 1dbb 9ebc 45b0 3dbd
00000370: 3e6f 873c 9279 833c 973f 30bd bae1 d23c
00000380: cc76 0dbc 5b95 2f3d 8df7 2b3d b9d0 123d
00000390: 7262 b53c 6942 333d 8200 8f3c de93 dabc
000003a0: f1ce 1b3d b6ae e43c 6ba1 a3bc 1d49 0e3d
000003b0: b85b 6b3c 6034 45bb e2c0 ef3c 082b b53b
000003c0: a650 84bc ea1a 38bd 9618 b13c f0ea 27bb
000003d0: fd7e 0e3d a0d5 d1bb 4790 0f3d 00f3 13ba
000003e0: 000e 1739 9a2c 9d3c 2b17 f3bc 15da 0abd
000003f0: 9b53 e9bc b0c3 c73b ad95 013d 90cc 33bd

weight f4 [16, 32]
-0.020459026 0.068397656 0.1341186 0.12927713 -0.04801601 0.08962454 0.16742457 -0.13085857
0.029969722 -0.050990373 -0.16988674 -0.17474964 -0.17644055 -0.06923414 -0.09359495 -0.058081836
-0.116001636 -0.022182018 0.15640067 -0.05937151 -0.08684327 0.17315395 -0.15009323 -0.061363153
-0.06782798 0.076154664 0.06265266 0.041327044 0.108097926 0.01540789 0.12916957 -0.043405503
0.073861435 0.019633412 -0.00614883 0.16043322 0.11694972 -0.13524356 -0.04934661 -0.15653399
-0.12550002 -0.15248226 0.13854606 0.025955066 0.06530425 0.15037464 -0.042769626 0.07611467
0.1030799 0.019584477 -0.17482933 -0.08591719 0.04119481 -0.006664455 0.13632436 -0.14323655
0.07318625 0.17407595 -0.051710784 -0.04883714 -0.006584123 -0.056551397 0.1198089 0.040054828
-0.17072299 0.1560737 0.09795357 -0.16388136 0.06678972 0.1414225 0.11109625 0.15437983
-0.051416248 0.07836668 -0.10967417 0.10889943 -0.08701322 -0.14927647 -0.1417487 -0.07370101
-0.16147467 -0.09073329 0.04075545 0.15248676 0.13705976 0.00044599175 0.1521744 0.066530794
-0.019776732 0.039959192 -0.11928597 -0.042382687 0.100449726 -0.14853004 0.15032549 -0.09461244
-0.012791142 0.15284233 0.05132097 -0.13928446 0.0045165867 -0.14317138 -0.031186283 -0.057964794
-0.13273442 0.043484792 -0.16330932 0.039267227 -0.025656402 0.094351634 0.060853794 0.14320047
0.09209679 0.0032308996 -0.10663831 -0.08618143 -0.0576874 0.14646496 -0.117868505 0.013963565
0.1416773 0.018232614 0.0028369874 0.097992614 0.08831178 -0.16320468 -0.085075326 0.06509404
-0.12241954 0.12661783 0.05583617 -0.1610069 -0.15900595 -0.0897024 0.10562648 -0.058875076
-0.036301315 0.068115756 -0.10518894 -0.052453183 0.037559286 -0.14267753 -0.1692941 -0.13072407
0.05657214 -0.08394824 -0.1363911 0.049005955 0.022089675 -0.018731773 -0.017073557 0.11977874
-0.094968334 0.02736026 0.04615818 -0.025342837 -0.050398245 -0.17296827 0.0056425333 -0.045406997
0.042769775 0.13991444 0.119391575 0.10530515 -0.06982013 -0.04006684 -0.02071853 0.15377967
-0.13325864 -0.1687161 0.16741867 0.16112159 0.09664868 0.14817287 0.12259717 -0.15311895
0.1536294 -0.062482595 -0.06552189 0.17510371 0.061478496 -0.06947952 0.052771732 -0.096804485
0.17147954 0.03100273 -0.15739523 -0.014823124 -0.08591639 0.090810105 -0.09570238 0.15283634
0.13345934 0.058782563 -0.040833294 0.13341214 0.004835859 -0.018680751 0.07974477 0.0068933964
0.15489627 0.049580693 -0.16780904 -0.021442816 -0.074756704 -0.042119116 0.11458655 0.07411347
0.15094648 -0.006836325 0.09489982 -0.12128837 0.17231251 -0.0046621114 -0.09880456 0.14042066
0.07603945 -0.02261126 0.1712762 -0.11599599 -0.114943855 0.07941352 -0.035899267 -0.043996945
0.028047293 0.11948483 -0.08476989 -0.087875776 -0.025700286 -0.06520134 0.16375853 -0.024218842
0.024863318 0.043311596 -0.028133318 -0.119374916 -0.008410379 0.14813326 0.14303426 -0.009659782
0.17481087 0.0676596 -0.11077039 0.1565143 -0.072189756 0.17610998 0.14405854 0.14577882
-0.096133105 -0.0014185011 0.079042986 0.026896477 -0.03557186 -0.12558979 -0.034909427 0.02951388
00000000: b099 a7bc 1214 8c3d 6356 093e 3961 043e
00000010: 70ac 44bd 128d b73d 5971 2b3e caff 05be
00000020: 1083 f53c 48db 50bd caf6 2dbe 92f1 32be
00000030: d5ac 34be a1ca 8dbd b6ae bfbd 38e7 6dbd
00000040: 4492 edbd 10b7 b5bc 7f27 203e 8a2f 73bd
00000050: e2da b1bd 454f 313e 0ab2 19be ee57 7bbd
00000060: 65e9 8abd faf6 9b3d 0a50 803d 8c46 293d
00000070: 7262 dd3d 6071 7c3c 0745 043e f8c9 31bd
00000080: aa44 973d 40d6 a03c 207c c9bb 9b48 243e
00000090: 5683 ef3d 4a7d 0abe ac1f 4abd 724a 20be
000000a0: 1483 00be 4f24 1cbe 05df 0d3e b89f d43c
000000b0: 3cbe 853d cffb 193e 342f 2fbd 02e2 9b3d
000000c0: 8e1b d33d a06f a03c 7606 33be 5af5 afbd
000000d0: e4bb 283d 8061 dabb 9d98 0b3e 9aac 12be
000000e0: ace2 953d f740 323e b0ce 53bd 7409 48bd
000000f0: a0bf d7bb 70a2 67bd 5e5e f53d 8810 243d
00000100: 02d2 2ebe c9d1 1f3e e29b c83d 84d0 27be
00000110: 0cc9 883d 0fd1 103e 6e86 e33d bf15 1e3e
00000120: d899 52bd b67e a03d da9c e0bd aa06 df3d
00000130: fd33 b2bd eedb 18be 9226 11be 8ef0 96bd
00000140: 9e59 25be 60d2 b9bd 30ef 263d 7d25 1c3e
00000150: 6559 0c3e 00d4 e939 9bd3 1b3e 4c41 883d
00000160: d002 a2bc 40ac 233d 344c f4bd 7899 2dbd
00000170: 96b8 cd3d 4218 18be edee 193e 2bc4 c1bd
00000180: f091 51bc b382 1c3e f035 523d 96a0 0ebe
00000190: e0ff 933b 859b 12be 607a ffbc 7e6c 6dbd
000001a0: 88eb 07be 1c1d 323d 8f3a 27be acd6 203d
000001b0: 602d d2bc 6e3b c13d d441 793d 25a3 123e
000001c0: 3e9d bc3d 80bd 533b 3065 dabd e47f b0bd
000001d0: a049 6cbd e9fa 153e 0b65 f1bd 70c7 643c
000001e0: db13 113e 905c 953c c0ec 393b 5ab0 c83d
000001f0: cedc b43d 211f 27be f93b aebd 0650 853d
00000200: 19b7 fabd 1ba8 013e 78b4 643d fede 24be
00000210: 75d2 22be e4b5 b7bd b252 d83d fe26 71bd
00000220: b0b0 14bd 4680 8b3d 4d6d d7bd 26d9 56bd
00000230: c4d7 193d 0f1a 12be 6f5b 2dbe 88dc 05be
00000240: 30b8 673d 0eed abbd 1caa 0bbe 78ba 483d
00000250: 68f5 b43c 6073 99bc d8dd 8bbc 8e4e f53d
00000260: c27e c2bd a022 e03c 5c10 3d3d c89b cfbc
00000270: 646e 4ebd 981e 31be 00e5 b83b b0fc 39bd
00000280: 5c2f 2f3d bb45 0f3e 9283 f43d 3aaa d73d
00000290: dbfd 8ebd 201d 24bd e8b9 a9bc 6b78 1d3e
000002a0: f474 08be eac3 2cbe cd6f 2b3e 0ffd 243e
000002b0: beef c53d a1ba 173e 3a14 fb3d 37cb 1cbe
000002c0: 0751 1d3e c0ed 7fbd 5730 86bd 634e 333e
000002d0: e0d0 7b3d 474b 8ebd 2c27 583d 6e41 c6bd
000002e0: 5598 2f3e 70f9 fd3c 372c 21be b0dc 72bc
000002f0: eff4 afbd a6fa b93d 9cff c3bd 2181 1c3e
00000300: 91a9 083e fcc5 703d d040 27bd 319d 083e
00000310: 2076 9e3b 6008 99bc 3a51 a33d 00e2 e13b
00000320: 219d 1e3e 2015 4b3d 22d6 2bbe d8a8 afbc
00000330: 0b1a 99bd 1885 2cbd 5aac ea3d cec8 973d
00000340: b791 1a3e 4003 e0bb d65a c23d 0966 f8bd
00000350: b172 303e a0c4 98bb 0c5a cabd 6fca 0f3e
00000360: 92ba 9b3d 403b b9bc 0763 2f3e 4e8f edbd
00000370: af67 ebbd 8ea3 a23d 1c0b 13bd 2436 34bd
00000380: 70c3 e53c 76b4 f43d d69b adbd 37f8 b3bd
00000390: 6889 d2bc 4888 85bd 51b0 273e 9866 c6bc
000003a0: 28ae cb3c 8067 313d d877 e6bc d67a f4bd
000003b0: b0cb 09bc 3fb0 173e 9377 123e 1044 1ebc
000003c0: 9f01 333e 1e91 8a3d 96db e2bd 4945 203e
000003d0: 39d8 93bd 2d56 343e 1584 133e 0b47 153e
000003e0: 6fe1 c4bd 00ed b9ba 4ae1 a13d 0056 dc3c
000003f0: ccb3 11bd 9c9a 00be 30fd 0ebd 18c7 f13c

bias f4 [16]
-0.14976344 -0.11325564 0.14511965 0.13672207 -0.106191576 -0.1191296 0.09171997 -0.05743035
-0.073039204 -0.036273494 -0.124603346 0.074646905 -0.054414086 0.09921382 0.15813284 -0.061192922
00000000: 965b 19be 93f2 e7bd 3f9a 143e df00 0c3e
00000010: f87a d9bd 38fa f3bd aed7 bb3d 163c 6bbd
00000020: 9495 95bd 8493 14bd 0a30 ffbd 7ae0 983d
00000030: 4ee1 5ebd 9e30 cb3d 93ed 213e 6ea5 7abd

weight f4 [16, 16]
0.17669973 0.21443224 -0.23868823 0.0037534833 0.16036403 -0.04895845 0.026718736 0.050097734
-0.23708946 0.10229057 0.10256782 0.10394773 -0.14906237 0.015278757 -0.079151124 -0.038392216
-0.061063647 -0.1426051 0.06397736 -0.048072785 -0.12988037 -0.08437416 0.18803647 -0.18387362
0.048409045 -0.09823713 -0.24658266 -0.0586603 -0.20431295 -0.24741063 0.051891893 -0.18658155
0.07468563 0.075974435 -0.01837176 0.1419583 -0.095762074 -0.22502103 0.022936076 0.190115
0.22037983 0.057341367 0.17049596 -0.23317456 0.20748788 -0.1564965 -0.06557676 0.013836622
0.012397677 0.015734673 0.2406545 -0.227357 0.18420902 -0.03884214 -0.21281219 -0.20920467
-0.18462253 0.08449224 -0.20594606 0.24755675 -0.2160945 -0.22598219 0.17799473 -0.07078013
-0.23521632 0.06092769 0.09053758 -0.21271849 -0.16288489 0.048453867 0.08363357 -0.051597595
-0.21351653 -0.19130775 -0.098365426 -0.13555327 -0.10773033 0.13999295 -0.046958625 -0.08764142
-0.24589214 -0.079987615 0.2104545 0.0680902 0.13010687 0.011557102 -0.18535548 0.09453881
-0.114990205 0.171924 -0.09243983 -0.22267199 0.20738477 -0.13651171 -0.09902078 -0.18038505
-0.15440157 0.025641352 0.023538351 0.2468237 0.245173 0.21461114 0.04889837 0.18160349
0.24870148 0.002858907 0.14973503 0.10565695 0.084068775 0.083625525 -0.11139813 0.14578581
-0.013992667 0.06864354 0.17221409 -0.06922081 -0.06840846 -0.13080555 0.11359358 -0.07435742
0.16269699 0.0018994808 0.07478398 0.0044035614 0.24448863 -0.09627524 -0.18205369 0.03231746
0.19976115 0.15389827 0.0033006072 -0.18981546 -0.19652966 0.13089406 0.13998622 0.14700067
0.09462869 -0.18519211 -0.0760971 0.21806046 0.1226283 0.14184469 -0.054540068 0.21706608
0.16766095 0.14598715 0.18650815 0.11083898 0.18686464 0.023143023 0.016382545 -0.19289315
0.23029536 -0.20746616 0.18502194 0.04738784 -0.044777542 0.18072292 0.03962049 -0.13817832
-0.01433745 -0.12441927 0.23019981 -0.063750505 -0.06271508 0.13624716 0.1476247 -0.027322203
0.2073384 -0.14091372 -0.058604896 -0.09451619 -0.13984731 -0.08795017 0.01608932 0.19635278
-0.09692657 0.19033295 -0.10161322 -0.16082996 -0.090462476 -0.009510905 -0.18545792 -0.020870656
-0.15035519 0.025434524 0.052084774 -0.08187905 -0.030969411 -0.108489096 0.04537663 0.085166425
-0.026230961 0.24574947 -0.1431174 -0.06731096 -0.030516535 0.17375293 -0.09906742 -0.15506053
0.1653085 0.117321074 -0.18860129 -0.19017261 0.09548378 0.12108421 0.13619748 -0.24404848
0.13348347 -0.21641788 -0.1982682 0.05464208 -0.23881674 0.23352325 -0.2444453 0.19895557
0.21683866 0.11133999 0.006074637 -0.21639436 0.24771291 0.032150716 -0.1656206 0.14567363
-0.109584 0.19648963 0.15516451 0.045346946 -0.21411043 0.16877285 0.11010474 0.24560538
0.20932505 0.2312245 0.23201427 0.19838253 -0.01855123 -0.13188532 0.02590555 0.025167137
0.0159221 0.14867729 0.22131127 -0.11457503 -0.039035767 0.1930114 0.09442127 0.07803717
0.17595735 0.1913777 0.119674385 0.2082687 -0.22919592 0.1931788 -0.17687878 0.123569906
00000000: c6f0 343e 2094 5b3e b06a 74be 00fd 753b
00000010: 7836 243e a888 48bd 40e1 da3c 4833 4d3d
00000020: 94c7 72be b87d d13d 140f d23d 8ce2 d43d
00000030: cea3 18be c053 7a3c fc19 a2bd 2841 1dbd
00000040: e01d 7abd 1207 12be 9006 833d f8e7 44bd
00000050: 5cff 04be 5ccc acbd a28c 403e 5e49 3cbe
00000060: 9048 463d 8c30 c9bd 2a80 7cbe c845 70bd
00000070: 6a37 51be 3659 7dbe 988c 543d 3c0f 3fbe
00000080: c8f4 983d 7c98 9b3d 6080 96bc 845d 113e
00000090: e81e c4bd ea6b 66be 70e4 bb3c 82ad 423e
000000a0: 40ab 613e c8de 6a3d 7e96 2e3e 50c5 6ebe
000000b0: b477 543e 9e40 20be 1c4d 86bd 00b3 623c
000000c0: a01f 4b3c 00e6 803c 226e 763e 46d0 68be
000000d0: 4aa1 3c3e f018 1fbd 70eb 59be c039 56be
000000e0: b00d 3dbe 440a ad3d 86e3 52be 847f 7d3e
000000f0: e047 5dbe e067 67be 4044 363e 2cf5 90bd
00000100: 8cdc 70be 508f 793d c46b b93d e0d2 59be
00000110: 4ccb 26be 9077 463d 1448 ab3d 0058 53bd
00000120: 14a4 5abe 2ee6 43be d073 c9bd 7ace 0abe
00000130: b8a1 dcbd 505a 0f3e b057 40bd 587d b3bd
00000140: 26cb 7bbe 8cd0 a3bd 6281 573e e072 8b3d
00000150: bc3a 053e 005a 3d3c d4cd 3dbe 909d c13d
00000160: fc7f ebbd d80c 303e 1851 bdbd 2004 64be
00000170: ac5c 543e bac9 0bbe 68cb cabd dcb6 38be
00000180: 721b 1ebe d00d d23c 80d3 c03c 5abf 7c3e
00000190: a20e 7b3e 06c3 5b3e a849 483d 44f6 393e
000001a0: 9aab 7e3e 805c 3b3b 2454 193e ac62 d83d
000001b0: 402c ac3d dc43 ab3d b424 e4bd e048 153e
000001c0: 8041 65bc fc94 8c3d e458 303e a4c3 8dbd
000001d0: bc19 8cbd e4f1 05be c0a3 e83d b448 98bd
000001e0: 0a9a 263e 00f8 f83a 5828 993d c04b 903b
000001f0: 3a5b 7a3e f42b c5bd 486c 3abe 505f 043d
00000200: 308e 4c3e 8297 1d3e 004f 583b fc5e 42be
00000210: 123f 49be 1809 063e 8c58 0f3e 5887 163e
00000220: b0cc c13d 00a3 3dbe ccd8 9bbd 3e4b 5f3e
00000230: 8c24 fb3d bc3f 113e 6865 5fbd 9246 5e3e
00000240: 50af 2b3e a87d 153e fefb 3e3e 8cff e23d
00000250: 7259 3f3e 7096 bd3c b034 863c c885 45be
00000260: 8cd2 6b3e 0272 54be 6476 3d3e c019 423d
00000270: a868 37bd 6e0f 393e 1849 223d 9e7e 0dbe
00000280: a0e7 6abc 88cf febd 80b9 6b3e a08f 82bd
00000290: c470 80bd 6084 0b3e ee2a 173e d0d2 dfbc
000002a0: 8450 543e b04b 10be b00b 70bd b491 c1bd
000002b0: 2234 0fbe 381f b4bd c0cd 833c b410 493e
000002c0: 7081 c6bd a4e6 423e 981a d0bd 9cb0 24be
000002d0: 6444 b9bd a0d3 1bbc aee8 3dbe f0f8 aabc
000002e0: b6f6 19be 105c d03c d856 553d 34b0 a7bd
000002f0: 90b3 fdbc 882f debd d8dc 393d bc6b ae3d
00000300: 50e2 d6bc c0a5 7b3e 5e8d 12be 54da 89bd
00000310: d0fd f9bc 4aec 313e dce3 cabd 30c8 1ebe
00000320: a246 293e 0846 f03d b220 41be 9cbc 42be
00000330: 008d c33d 00fb f73d 5a77 0b3e d8e7 79be
00000340: e4af 083e a69c 5dbe d206 4bbe 60d0 5f3d
00000350: 608c 74be b820 6f3e de4f 7abe 02bb 4b3e
00000360: f40a 5e3e 3806 e43d c00d c73b 7c96 5dbe
00000370: 74a8 7d3e 78b0 033d 7298 29be 782b 153e
00000380: 946d e0bd 9434 493e 72e3 1e3e b8bd 393d
00000390: c43f 5bbe cad2 2c3e 987e e13d fa7f 7b3e
000003a0: 4e59 563e 1ec6 6c3e 2695 6d3e ca24 4b3e
000003b0: c0f8 97bc f20c 07be e037 d43c 502b ce3c
000003c0: 106f 823c dc3e 183e 6c9f 623e 50a6 eabd
000003d0: f8e3 1fbd c8a4 453e f05f c13d f4d1 9f3d
000003e0: 2a2e 343e 84f8 433e d817 f53d 6444 553e
000003f0: 56b2 6abe aad0 453e b61f 35be 3812 fd3d

bias f4 [16]
0.08201009 0.16553527 0.08076367 -0.040914983 0.16687396 0.23142889 -0.12970078 -0.23236173
-0.24462357 -0.20848891 -0.20597348 0.14821273 -0.08010653 -0.024443418 0.20065156 0.23655605
00000000: e8f4 a73d 1482 293e 6c67 a53d 7896 27bd
00000010: 02e1 2a3e b2fb 6c3e 48d0 04be 3cf0 6dbe
00000020: 9a7e 7abe 1e7e 55be b6ea 52be 14c5 173e
00000030: e40e a4bd 903d c8bc 9a77 4d3e c03b 723e

weight f4 [1, 16]
-0.15899739 0.19093785 -0.24641237 -0.036047637 0.0992443 -0.12802482 -0.091429055 0.07130051
-0.21571535 -0.1657989 -0.21059406 -0.033029526 -0.09471023 0.058027476 0.10557309 0.2441431
00000000: 36d0 22be 3685 433e 8653 7cbe b0a6 13bd
00000010: 9840 cb3d f018 03be 283f bbbd 0006 923d
00000020: 7ce4 5cbe 30c7 29be f8a5 57be f849 07bd
00000030: 70f7 c1bd 38ae 6d3d b436 d83d a600 7a3e
