DCN_Model/DCN_Model.pt (torch, 191004 bytes, 12 tensors)

weight f4 [2625, 16]
0	0x3cfbc322	0.030732695
1	0xbcc27bf4	-0.023740746
2	0xbc5100cc	-0.012756538
3	0x3bfccca8	0.0077148266
4	0xbd3d8b08	-0.04627517
5	0xbd10732e	-0.035266094
6	0x3c16c61c	0.009202506
7	0x3d113025	0.035446305
8	0x39c6d280	0.00037922338
9	0x3bb07dd8	0.0053860955
10	0xbd2829bc	-0.041055426
11	0xbd41c10c	-0.047303244
12	0x3d40791b	0.046990495
13	0xbd26b4c8	-0.04069975
14	0xbd3b7c98	-0.04577312
15	0x3c6e34f8	0.014538996
16	0x3d38f471	0.045154992
17	0xbc501fc0	-0.012702882
18	0x3cc93076	0.02455924
19	0xbd3ab247	-0.045580175
20	0xbccee2dc	-0.02525466
21	0x3d116799	0.03549919
22	0x3d1175d9	0.03551278
23	0xbca320cf	-0.019913105
24	0xbd3175fc	-0.04332541
25	0x3cdf3912	0.027248893
26	0xbd087d60	-0.033322692
27	0xbaf03a80	-0.0018327981
28	0x3d260fd7	0.04054245
29	0xbcfa5393	-0.03055743
30	0xbcaf9ff3	-0.021438574
31	0xbc230c38	-0.009951644
32	0xbbd7e728	-0.0065888353
33	0xbcdf43b4	-0.027253963
34	0xbcb0e843	-0.021595126
35	0xbd23a756	-0.039954506
36	0x3cc0e0a2	0.023544613
37	0xbc26ab1c	-0.010172632
38	0x3d2e29cb	0.042520326
39	0xbc86b534	-0.016443826
40	0x3c9bfcee	0.019041505
41	0x3c7313bc	0.014836248
42	0xbbe3c1f0	-0.0069506094
43	0xbba9d0d8	-0.005182367
44	0xbc9c2d35	-0.019064525
45	0xbc658748	-0.014009304
46	0x3a060200	0.00051119924
47	0x3d34c831	0.04413623
48	0x3d10144d	0.03517561
49	0xbc5e9694	-0.013585705
50	0xbd2e002f	-0.042480644
51	0x3c5538d0	0.013014033
52	0xbcd722ee	-0.026261773
53	0xbbf255a8	-0.007395465
54	0xbbfa9970	-0.0076476857
55	0xbd40a788	-0.04703477
56	0xbd010710	-0.031500876
57	0x3c858f4a	0.016303677
58	0x3d3efaf5	0.04662605
59	0x39927e00	0.00027941167
60	0x3c87a9ea	0.016560514
61	0x3d0d625b	0.034517627
62	0xbd2fb949	-0.04290131
63	0xbce54459	-0.027986692
64	0x3d33d3a7	0.04390302
65	0x3d1a1951	0.0376218
66	0xbd2e6324	-0.042575017
67	0x3c14bda4	0.009078417
68	0x3d1d15c1	0.038350824
69	0xbd39d627	-0.045370247
70	0x3c84fa36	0.016232591
71	0x3b959210	0.004564531
72	0x3be3f198	0.0069562905
73	0xbbd79c18	-0.006579887
74	0x3d317d67	0.043332484
75	0xbcf66879	-0.030079113
76	0x3cd1d786	0.025615465
77	0xbcc3a4cc	-0.023882292
78	0x3cf39f8e	0.029739168
79	0x3d33cc2d	0.04389589
80	0x3a800940	0.0009768382
81	0xbcef1e75	-0.029189328
82	0xbca70455	-0.020387808
83	0xbc80c69a	-0.0157197
84	0xbd263db7	-0.0405862
85	0x3bad0c88	0.005281035
86	0x3d1f0fa5	0.03883328
87	0xbd03d880	-0.032188892
88	0xbd1d48a0	-0.03839934
89	0x3d1627d3	0.036659073
90	0x3d19bf35	0.037535865
91	0x3c6899ac	0.0141967945
92	0x3d041039	0.032242034
93	0x3cf25932	0.029583547
94	0x3cd957d6	0.026531141
95	0x3d091657	0.03346857
96	0x3b8d8958	0.004319351
97	0x3cf3393e	0.029690381
98	0xbc98b5f7	-0.018641455
99	0x3c8be586	0.017077219
100	0xbb8360c8	-0.00400934
101	0x3c0885cc	0.008332681
102	0xbd02fa00	-0.0319767
103	0xbd236bf9	-0.039897893
104	0xbcb292f9	-0.021798598
105	0xbccca248	-0.024979725
106	0xb8eabc00	-0.00011193007
107	0xbccf7aa0	-0.025327027
108	0x3c1933a0	0.009350687
109	0xbd2a54ea	-0.041584887
110	0xbc1ba128	-0.009498872
111	0x3b7d6cb0	0.003866952
112	0x3d27f3fb	0.041004162
113	0x3c02c85c	0.00798234
114	0xbd40cd63	-0.047070872
115	0x3cd5407a	0.026031721
116	0xbd199344	-0.03749396
117	0x3c99b90a	0.018764991
118	0x3c53a128	0.012916841
119	0xbcc13f8c	-0.023589872
120	0xbc75e8b4	-0.015009094
121	0x3b853728	0.004065413
122	0x3d145c27	0.036220696
123	0x3d04fd29	0.032467995
124	0x3ca1365a	0.019679237
125	0xbd3d54ec	-0.046223566
126	0x3c896332	0.016770933
127	0xbc99c241	-0.018769385
128	0x3ad54ae0	0.0016272925
129	0xbbe346f0	-0.0069359466
130	0x3d116abb	0.035502177
131	0xbd228bf1	-0.03968424
132	0xbd007ea1	-0.031370763
133	0xbd056cd7	-0.0325745
134	0xbd18a601	-0.03726769
135	0xbb1ab420	-0.0023605898
136	0xbb131a10	-0.0022445954
137	0x3d01f86b	0.03173105
138	0x3c27fd68	0.010253288
139	0xbcf0f4f0	-0.02941367
140	0xbcecc4e7	-0.028902484
141	0xbc919d55	-0.017775217
142	0x3baef840	0.0053396523
143	0x3d191bb7	0.037379947
144	0x3ce7383e	0.02822506
145	0xbd2ed6c7	-0.042685296
146	0xbca2da9c	-0.019879632
147	0x3c9a6b9e	0.018850144
148	0xba182b40	-0.00058047846
149	0xbc502510	-0.012704149
150	0xbc324820	-0.010881454
151	0xbc7edbac	-0.015555304
152	0x3cbc13ea	0.022958715
153	0x39a61080	0.0003167428
154	0xbd2e9f86	-0.042632602
155	0xbccfc66f	-0.025363175
156	0x3cc45eb2	0.023970935
157	0x3d05f303	0.032702457
158	0x3c6ea6cc	0.014566135
159	0x3d1e2ee7	0.03861895
160	0xbc5da80c	-0.013528835
161	0xbd21cddd	-0.039502967
162	0x3b964fd8	0.004587155
163	0xbc9126f8	-0.017718777
164	0xbc406568	-0.011742927
165	0xbc607cb4	-0.013701607
166	0xbcffa353	-0.031205809
167	0xbd081266	-0.03322067
168	0x3c340234	0.010986853
169	0xbbc9f858	-0.006163638
170	0xb9e1b080	-0.00043046847
171	0x3d3e5093	0.04646356
172	0xbc8d5fcb	-0.017257592
173	0xbd009525	-0.031392235
174	0x3ca953aa	0.020669777
175	0x3c9400c6	0.018066775
176	0x3cc623f2	0.024187062
177	0x3c53f32c	0.012936395
178	0x3b897590	0.0041949227
179	0x3cc44622	0.023959223
180	0xbd045e2a	-0.032316364
181	0xbd201dae	-0.039090805
182	0x3c2ad37c	0.010426398
183	0xbc2363e4	-0.009972546
184	0xbabb8000	-0.0014305115
185	0xbb3a98b0	-0.0028472356
186	0x3c28d6b8	0.010305099
187	0xbcadd384	-0.021219023
188	0xbd3b0ace	-0.0456646
189	0xbbe9c9a8	-0.007134635
190	0xbc614464	-0.013749216
191	0x3d1e19c1	0.03859878
192	0x3d260de5	0.040540595
193	0xbcd531c8	-0.026024714
194	0x3d40c1cd	0.047059823
195	0xbb943618	-0.00452305
196	0x3d423c71	0.047420923
197	0x3cfc327a	0.030785788
198	0x3c38ad2c	0.011271756
199	0x3d17a265	0.037020106
200	0x3cb9476a	0.02261706
201	0xbcfef287	-0.031121505
202	0x3c52076c	0.012819152
203	0x3d2dc455	0.042423565
204	0xbd118dbd	-0.035535563
205	0xbd432ebd	-0.047651995
206	0xba859e40	-0.0010194257
207	0xba8d22e0	-0.001076784
208	0xbb871770	-0.004122667
209	0xbd218a34	-0.03943844
210	0x3cb9aa16	0.022664111
211	0x3bf79ae0	0.0075563043
212	0x3d399aa3	0.04531349
213	0xbcb11469	-0.021616178
214	0x3cb645be	0.022250053
215	0xbcaf8342	-0.021424893
216	0x3d0fdb5f	0.035121318
217	0xbc18d44c	-0.009327959
218	0xbba12830	-0.004918121
219	0xbd3c3540	-0.04594922
220	0x3c2c47f4	0.010515202
221	0x3bab43f8	0.0052266084
222	0xbcf6cd82	-0.03012729
223	0xbcf9f2b3	-0.030511236
224	0xbc3b565c	-0.011434164
225	0xbcff7645	-0.031184325
226	0xbd1976e6	-0.037466906
227	0xbd35074e	-0.04419642
228	0xbd29ee88	-0.041487247
229	0xbc9e6645	-0.019335875
230	0x3c96f746	0.018428456
231	0xbd142bad	-0.036174465
232	0x3c1b9b58	0.009497486
233	0xbd2ed141	-0.04268003
234	0xbc9d5b66	-0.019208621
235	0xbd41971a	-0.047263242
236	0x3c53a024	0.0129165985
237	0x3d2fc793	0.04291494
238	0xbbc4e0d8	-0.006008249
239	0xbbf56840	-0.007489234
240	0x3c80c2e2	0.015717927
241	0x3c609250	0.013706759
242	0x3c251900	0.010076761
243	0x3d27fefd	0.04101466
244	0xbcb6d9c2	-0.022320632
245	0xbc8f8aa4	-0.017522164
246	0x3c65f740	0.014036
247	0x3a31e2c0	0.00067858025
248	0xbbe387a0	-0.006943658
249	0x3d197ebb	0.037474375
250	0x3cd42cbe	0.025900241
251	0xbd1ef182	-0.03880454
252	0xbcb31656	-0.021861237
253	0xbcd84d64	-0.02640409
254	0xbd1b451d	-0.03790771
255	0x3c84d6aa	0.016215641

weight f4 [1, 32]
0	0xbe10e4fb	-0.14149849
1	0x3d9f9bfe	0.07793425
2	0xbd9a59f7	-0.07536691
3	0xbdd513ad	-0.104041435
4	0xbd769104	-0.06019689
5	0x3c446610	0.011987224
6	0x3cafd8e8	0.021465734
7	0xbdb45be0	-0.08806586
8	0x3e1d7e4f	0.15380214
9	0xbe2a12fc	-0.16608804
10	0x3d832e56	0.06405322
11	0x3e2f6b4f	0.17130779
12	0x3cf42720	0.029803813
13	0x3db66b82	0.08907224
14	0x3dd05e6e	0.10174261
15	0x3d44a344	0.048007265
16	0x3caf7ba8	0.021421269
17	0xbe04f098	-0.12982404
18	0x3e11c3db	0.14234869
19	0xbe2d4a15	-0.16922791
20	0xbe121d67	-0.14269029
21	0x3cc76988	0.024342313
22	0xbd0742b0	-0.033022583
23	0xbdffc214	-0.12488189
24	0x3d304ee4	0.043043986
25	0xbd0561ec	-0.03256409
26	0x3d4dda24	0.050256863
27	0xbd8cfce8	-0.068841755
28	0x3d213f08	0.039366752
29	0x3cdcdc90	0.026960641
30	0xbaa9ee00	-0.0012964606
31	0x3d6bf9c4	0.057611242

weight f4 [1, 32]
0	0x3dd4b256	0.103855774
1	0x3dda0806	0.106460616
2	0x3d0dd940	0.034631014
3	0xbde00a94	-0.109395176
4	0x3df4318a	0.11923511
5	0x3e2dbbff	0.16966246
6	0x3e1830dd	0.1486239
7	0xbe260ca1	-0.16215755
8	0x3d0225dc	0.031774387
9	0x3dc25d4a	0.0949045
10	0xbde5e7e9	-0.11225874
11	0x3cc49828	0.023998335
12	0x3de4b93e	0.11168145
13	0xbdd1948e	-0.10233413
14	0xbe15ce32	-0.14629439
15	0x3ae00280	0.0017090589
16	0xbdc15d0e	-0.09441577
17	0xbcac1010	-0.021003753
18	0xbddf5dd9	-0.10906572
19	0x3be41b60	0.006961271
20	0xbd783f06	-0.06060698
21	0x3e315385	0.17317016
22	0x3e1b1c4d	0.15147515
23	0xbdce1bdb	-0.10063907
24	0x3dd23586	0.10264115
25	0x3df800fe	0.12109564
26	0x3d97df9a	0.074156955
27	0xbd6c3e44	-0.05767657
28	0xbe256387	-0.16151248
29	0x3e28388d	0.16427822
30	0xbdde44b2	-0.10852946
31	0xbdac8b20	-0.084249735

weight f4 [1, 32]
0	0x3c7d6c50	0.015467718
1	0x3e23ec6d	0.16008158
2	0xbdefe93d	-0.117144085
3	0x3e2ec5c9	0.17067637
4	0xbd958994	-0.073016316
5	0xbe147982	-0.14499477
6	0xbdc3b6a0	-0.09556317
7	0x3d0ea464	0.034824744
8	0xbe083628	-0.13301909
9	0x3d921332	0.071325675
10	0xbcf42c98	-0.02980642
11	0x3e095275	0.13410361
12	0xbd8bee21	-0.06832529
13	0x3e200d25	0.15630014
14	0x3e1291a9	0.14313377
15	0x3e11d54f	0.14241527
16	0x3dc54d1e	0.096338496
17	0x3dc06b4e	0.09395467
18	0xbe00fee0	-0.12597227
19	0x3e0f4ea1	0.13994838
20	0xbd30ef68	-0.043197066
21	0x3e314e89	0.17315115
22	0x3c934078	0.017975077
23	0xbdd19c7a	-0.10234924
24	0x3d7910b4	0.060806945
25	0x3cca2728	0.024676874
26	0x3b216f40	0.002463296
27	0xbdb16fad	-0.086638786
28	0xbe321dad	-0.17394133
29	0xbcb54988	-0.022129789
30	0x3db03ca2	0.08605315
31	0xbdd8052a	-0.1054786

0 f4 [32]
0	0x00000000	0.0
1	0x00000000	0.0
2	0x00000000	0.0
3	0x00000000	0.0
4	0x00000000	0.0
5	0x00000000	0.0
6	0x00000000	0.0
7	0x00000000	0.0
8	0x00000000	0.0
9	0x00000000	0.0
10	0x00000000	0.0
11	0x00000000	0.0
12	0x00000000	0.0
13	0x00000000	0.0
14	0x00000000	0.0
15	0x00000000	0.0
16	0x00000000	0.0
17	0x00000000	0.0
18	0x00000000	0.0
19	0x00000000	0.0
20	0x00000000	0.0
21	0x00000000	0.0
22	0x00000000	0.0
23	0x00000000	0.0
24	0x00000000	0.0
25	0x00000000	0.0
26	0x00000000	0.0
27	0x00000000	0.0
28	0x00000000	0.0
29	0x00000000	0.0
30	0x00000000	0.0
31	0x00000000	0.0

1 f4 [32]
0	0x00000000	0.0
1	0x00000000	0.0
2	0x00000000	0.0
3	0x00000000	0.0
4	0x00000000	0.0
5	0x00000000	0.0
6	0x00000000	0.0
7	0x00000000	0.0
8	0x00000000	0.0
9	0x00000000	0.0
10	0x00000000	0.0
11	0x00000000	0.0
12	0x00000000	0.0
13	0x00000000	0.0
14	0x00000000	0.0
15	0x00000000	0.0
16	0x00000000	0.0
17	0x00000000	0.0
18	0x00000000	0.0
19	0x00000000	0.0
20	0x00000000	0.0
21	0x00000000	0.0
22	0x00000000	0.0
23	0x00000000	0.0
24	0x00000000	0.0
25	0x00000000	0.0
26	0x00000000	0.0
27	0x00000000	0.0
28	0x00000000	0.0
29	0x00000000	0.0
30	0x00000000	0.0
31	0x00000000	0.0

2 f4 [32]
0	0x00000000	0.0
1	0x00000000	0.0
2	0x00000000	0.0
3	0x00000000	0.0
4	0x00000000	0.0
5	0x00000000	0.0
6	0x00000000	0.0
7	0x00000000	0.0
8	0x00000000	0.0
9	0x00000000	0.0
10	0x00000000	0.0
11	0x00000000	0.0
12	0x00000000	0.0
13	0x00000000	0.0
14	0x00000000	0.0
15	0x00000000	0.0
16	0x00000000	0.0
17	0x00000000	0.0
18	0x00000000	0.0
19	0x00000000	0.0
20	0x00000000	0.0
21	0x00000000	0.0
22	0x00000000	0.0
23	0x00000000	0.0
24	0x00000000	0.0
25	0x00000000	0.0
26	0x00000000	0.0
27	0x00000000	0.0
28	0x00000000	0.0
29	0x00000000	0.0
30	0x00000000	0.0
31	0x00000000	0.0

weight f4 [16, 32]
0	0xbd9c956e	-0.07645689
1	0xbe003eb1	-0.12523915
2	0xbe244f8d	-0.16045971
3	0xbcec6ad8	-0.02885954
4	0xbe03b91e	-0.12863585
5	0x3dafd7be	0.085860714
6	0xbddba987	-0.10725694
7	0xbd6520f0	-0.055939615
8	0xbe0639b4	-0.1310795
9	0xbd8a790d	-0.0676137
10	0xbe228cf2	-0.15874079
11	0x3d6a697c	0.057229504
12	0xbdd3d432	-0.103432074
13	0x3da32aa2	0.07967116
14	0x3dd4579a	0.10368271
15	0x3e222c87	0.15837298
16	0xbe25d217	-0.16193424
17	0x3e27f35f	0.16401432
18	0x3d51e5f4	0.05124469
19	0xbe2878db	-0.16452353
20	0xbd925ce4	-0.07146624
21	0xbe2ceae5	-0.1688648
22	0x3debadbe	0.11507748
23	0xbd7ce1f2	-0.061738916
24	0xbda1515b	-0.078768454
25	0xbe09726a	-0.13422552
26	0x3de15016	0.11001603
27	0x3e26ee5f	0.16301869
28	0xbdadd7c6	-0.08488421
29	0xbe237180	-0.15961266
30	0xbe19bd03	-0.15013508
31	0x3e06ffbf	0.13183497
32	0x3d320a70	0.043466985
33	0xbc8eca18	-0.01743035
34	0xbdb1edb5	-0.08687917
35	0x3d1bc504	0.038029686
36	0x3cb4c550	0.022066742
37	0x3e0146df	0.12624691
38	0xbd9fa005	-0.07794193
39	0xbcb87ed0	-0.022521406
40	0xbd4da298	-0.05020389
41	0x3e259d9b	0.16173403
42	0xbe2a4f12	-0.16631725
43	0x3dbf1682	0.09330465
44	0xbd8f81b0	-0.07007158
45	0xbe227d26	-0.15868053
46	0x3c8b4590	0.017000943
47	0xbdf99cf6	-0.12188141
48	0x3c1296a0	0.008947045
49	0xbd8e1a94	-0.06938663
50	0x3da6e30e	0.08148776
51	0xbdf95476	-0.12174313
52	0xbe00b3b3	-0.1256855
53	0xbdb45440	-0.08805132
54	0x3d73dd5c	0.059537277
55	0xbb8fa600	-0.0043838024
56	0x3e0f6055	0.14001592
57	0xbdc3cca5	-0.09560517
58	0x3e0c63df	0.13709973
59	0xbe2ff0e6	-0.17181739
60	0x3da42722	0.080152765
61	0x3df8a38a	0.121405676
62	0xbd46cf7c	-0.048537716
63	0x3d21b558	0.039479584
64	0x3ceb6f90	0.02873972
65	0xbdfe5b7f	-0.12419795
66	0x3d203250	0.03911048
67	0x3d810396	0.06299512
68	0xbd57d9b8	-0.052697867
69	0x3d00e0ac	0.031464264
70	0xbd0d2d54	-0.034467056
71	0xbd40d7d4	-0.04708083
72	0xbda06c00	-0.07833099
73	0xbe03854b	-0.12843816
74	0xbbe61da0	-0.0070225745
75	0xbe31c699	-0.17360915
76	0xbde96e4d	-0.11397991
77	0x3dee506e	0.116364345
78	0xbe172c40	-0.14762974
79	0x3ce69a08	0.02814962
80	0x3dd8fbb6	0.10594885
81	0x3e2a5e03	0.16637425
82	0x3e30d9e5	0.1727062
83	0x3dcd24da	0.100167945
84	0x3e12bba5	0.14329393
85	0xbdaaf10c	-0.08346757
86	0x3c930298	0.017945573
87	0x3b966480	0.0045896173
88	0x3dc2546a	0.09488757
89	0xbd41590c	-0.047204062
90	0x3dd22e2a	0.10262711
91	0xbd95ff3c	-0.07324073
92	0xbe25027a	-0.16114226
93	0x3d16d790	0.03682667
94	0x3db3d852	0.08781494
95	0x3d42d414	0.047565535
96	0xbe226528	-0.158589
97	0x3c7fcb50	0.015612438
98	0xbe2aaa14	-0.16666442
99	0xbbed5520	-0.0072428137
100	0xbdb434ce	-0.08799134
101	0xbe09c4ec	-0.13454026
102	0x3e037fe3	0.12841754
103	0xbe00952e	-0.12556908
104	0x3ac35600	0.0014902949
105	0xbe0a1fcd	-0.13488694
106	0x3e05c13d	0.13061996
107	0x3e165023	0.14679007
108	0xbe22b380	-0.15888786
109	0x3de7366e	0.112896785
110	0x3d0a3504	0.033741966
111	0x3d86adac	0.06576094
112	0xbd599cbe	-0.053127997
113	0x3d091418	0.03346643
114	0x3e33ffd3	0.17578058
115	0xbd253a18	-0.040338606
116	0x3d9c1b12	0.07622351
117	0xbddebd2e	-0.10875927
118	0xbdc5c2ab	-0.096562706
119	0xbdffbeb5	-0.12487546
120	0xbdec255d	-0.11530564
121	0x3e24298f	0.16031478
122	0xbdb92733	-0.0904068
123	0xbdc2fa56	-0.09520404
124	0x3dc77c5a	0.09740515
125	0x3d548758	0.051886886
126	0x3d9607a2	0.073256746
127	0x3d8b7578	0.06809515
128	0x3d2afa98	0.04174289
129	0xbe30e33d	-0.17274185
130	0x3c224ed0	0.009906486
131	0xbe0ff0ae	-0.14056656
132	0x3d81b146	0.0633264
133	0x3e1506f3	0.14553432
134	0x3e265e33	0.16246872
135	0x3de823ba	0.11334939
136	0xbd815791	-0.0631553
137	0xbe03e385	-0.1287976
138	0x3d8f5688	0.069989264
139	0x3c2e8850	0.010652617
140	0xbd28e218	-0.041231245
141	0x3e000431	0.12501599
142	0xbdbe76a0	-0.0929997
143	0x3e2584b3	0.16163902
144	0x3ca6c790	0.02035883
145	0xbd90a9a2	-0.07063605
146	0x3e30ad27	0.17253552
147	0x3ddee91a	0.10884304
148	0x3de44252	0.11145462
149	0x3d33c760	0.04389131
150	0x3d971736	0.07377474
151	0x3e1f9517	0.15584217
152	0xbda36213	-0.079776905
153	0x3ddc96be	0.10770939
154	0xbd864f17	-0.06558054
155	0xbdc32d50	-0.09530127
156	0xbc67e7b0	-0.01415436
157	0xbda66e4f	-0.081265084
158	0xbc1aa7e0	-0.009439439
159	0x3d3d6d68	0.046246916
160	0x3c9d81f8	0.019227013
161	0x3d08dd94	0.03341444
162	0x3e13b07d	0.14422794
163	0x3e2f201d	0.17102094
164	0xbe037aa6	-0.12839755
165	0xbdc3c9fb	-0.09560009
166	0xbd903f97	-0.07043379
167	0x3d807f86	0.06274323
168	0x3d7e0aa0	0.06202185
169	0x3e0498c3	0.12948899
170	0x3d655a40	0.055994272
171	0x3e0d66f3	0.13808803
172	0xbdc29538	-0.095011175
173	0x3d9510d6	0.07278602
174	0xbd4230d0	-0.047409832
175	0xbe2d8a5d	-0.16947313
176	0xbd09c538	-0.033635348
177	0x3e2730e1	0.1632724
178	0x3d179248	0.03700474
179	0xbdbeca24	-0.09315899
180	0xbd59115a	-0.052995063
181	0x3cc63ed0	0.024199873
182	0x3e2013cb	0.1563255
183	0x3d582124	0.05276598
184	0xbe33e601	-0.17568208
185	0xbd0c7258	-0.034288734
186	0x3e13fd83	0.14452176
187	0xbdac2c57	-0.08406895
188	0x3e1f2c4b	0.1554424
189	0xbde785c1	-0.113048084
190	0x3910f000	0.00013822317
191	0x3dc54e56	0.09634082
192	0x3e1e0a31	0.15433575
193	0xbda34920	-0.07972932
194	0x3b006080	0.0019588768
195	0x3aa69700	0.0012709796
196	0xbd5d3dc6	-0.05401399
197	0xbd8a32b8	-0.06747955
198	0xbe1fe53a	-0.15614787
199	0xbd949609	-0.072551794
200	0x3b844a20	0.0040371567
201	0x3ddecc52	0.10878815
202	0xbd84fc87	-0.06493478
203	0x3a817200	0.0009875894
204	0x3d91accc	0.071130365
205	0xbd989cf1	-0.07451809
206	0x3d882d84	0.066493064
207	0x3d9d83ee	0.07691179
208	0x3e16bd37	0.14720617
209	0x3e2416bb	0.16024296
210	0xbcbd8ba0	-0.023137867
211	0x3dc1a1fa	0.09454723
212	0xbe21059b	-0.15724795
213	0xbdc17fe1	-0.09448219
214	0xbe26d07d	-0.1629047
215	0x3e2506fd	0.16115947
216	0xbd937c85	-0.072014846
217	0x3da01ea6	0.07818346
218	0xbc659c00	-0.014014244
219	0xbe067d56	-0.1313375
220	0x3de7974e	0.11308156
221	0xbe0bd3a5	-0.13654955
222	0x3d43a8e8	0.047768503
223	0xbe2e8dd0	-0.17046285
224	0xbd6cfc42	-0.05785776
225	0xbdde6659	-0.10859365
226	0xbd8179a4	-0.06322029
227	0xbc6a9230	-0.01431708
228	0x3dc0db82	0.09416868
229	0x3dea173e	0.11430214
230	0xbe2d5b4d	-0.1692936
231	0xbd8cb522	-0.06870486
232	0xbd0cbe00	-0.034360886
233	0xbdc40ad6	-0.09572379
234	0x3db7dd36	0.089777395
235	0x3d3c4614	0.04596527
236	0xbce69ce8	-0.02815099
237	0x3c66fcc0	0.014098346
238	0x3e0745af	0.13210176
239	0xbe027e4f	-0.12743495
240	0x3df27fea	0.11840804
241	0xbdf22574	-0.1182355
242	0xbde9a81e	-0.11409019
243	0x3de9ba42	0.11412479
244	0xbc377fd0	-0.0111999065
245	0xbd094e9c	-0.033522233
246	0x3db14206	0.08655171
247	0x3d365afc	0.044520363
248	0x3dda48f6	0.106584474
249	0x3e0e0191	0.13867785
250	0x3dddd166	0.10830955
251	0x3d4021ec	0.04690735
252	0xbd64ea1e	-0.055887334
253	0x3d397d78	0.045285672
254	0x3dc76d1a	0.09737606
255	0x3e2f3e89	0.17113699

bias f4 [16]
0	0xbd8f4cb9	-0.069970556
1	0xbe183c85	-0.14866836
2	0x3c8246d0	0.015902907
3	0x3c09e690	0.008416787
4	0x3de33f3e	0.11096047
5	0xbd88fb9a	-0.06688614
6	0xbd0c4174	-0.03424211
7	0xbe0e098a	-0.13870826
8	0x3c311920	0.010809213
9	0x3d4cd474	0.0500073
10	0x3e0e2c73	0.13884144
11	0xbe300f43	-0.17193322
12	0xbd95728b	-0.07297238
13	0xbdfcf21c	-0.12350866
14	0xbe339330	-0.17536616
15	0x3e317511	0.17329814

weight f4 [16, 16]
0	0xbd8f67ac	-0.07002196
1	0x3d310b38	0.04322359
2	0x3e14d006	0.1453248
3	0x3de9625c	0.11395714
4	0xbc421c40	-0.011847556
5	0xbe401bbc	-0.1876058
6	0x3e736002	0.23767093
7	0xbe6cc8d2	-0.23123482
8	0xbc0b60c0	-0.008506954
9	0x3d24d550	0.040242493
10	0x3e47edea	0.19524351
11	0x3e7b3fbc	0.24536031
12	0xbe5c1760	-0.21493292
13	0x3e03bdd6	0.12865385
14	0x3e0692a8	0.13141882
15	0xbe2eb496	-0.17061076
16	0x3e4a2318	0.1973995
17	0xbd5a9d90	-0.05337292
18	0xbe7307fe	-0.23733518
19	0xbd4fd698	-0.050741762
20	0xbdacc4dc	-0.084359854
21	0xbe37f27a	-0.17963591
22	0xbde7da14	-0.11320892
23	0x3d384778	0.044990033
24	0xbdb7f2b0	-0.08981836
25	0x3d158a40	0.0365088
26	0xbe2e6184	-0.17029387
27	0x3e33e8a8	0.1756922
28	0x3da6e3e4	0.081489354
29	0xbc8540c0	-0.016266227
30	0xbe2ba972	-0.16763857
31	0x3e0a62ac	0.13514203
32	0x3d9e0dd8	0.07717484
33	0xbe16dade	-0.14731929
34	0xbe516706	-0.20449457
35	0xbe29617a	-0.1654109
36	0x3e12e8ee	0.14346668
37	0x3e326514	0.1742137
38	0xbce814f0	-0.028330296
39	0x3e061580	0.13094139
40	0xbd6145c0	-0.05499816
41	0xbe3bc228	-0.18335783
42	0xbdfe0004	-0.12402347
43	0xbe1ca272	-0.15296343
44	0x3e602826	0.21890315
45	0xbe719eaa	-0.23595682
46	0x3e2e8872	0.17044237
47	0x3c622600	0.013803005
48	0x3e3539ae	0.17697784
49	0x3de41730	0.11137235
50	0x3db58594	0.08863369
51	0xbdb0d5e0	-0.086345434
52	0xbe24292c	-0.16031331
53	0x3e3a9856	0.18222174
54	0xbd27bd50	-0.040952027
55	0xbd35c058	-0.044372886
56	0xbe7e732a	-0.24848619
57	0xbe757634	-0.23970872
58	0x3e71d82e	0.23617622
59	0xbe7004f0	-0.23439384
60	0xbdbd9d08	-0.09258467
61	0xbe2d5352	-0.16926315
62	0xbbbe5e00	-0.0058095455
63	0xbdf2cd44	-0.118555576
64	0x3c76da80	0.015066743
65	0x3d612ff0	0.054977357
66	0x3d00cb30	0.031443775
67	0xbe0d1cfa	-0.13780585
68	0xbe724408	-0.23658764
69	0xbc9e4d60	-0.019324005
70	0x3b4a8980	0.003090471
71	0x3e664484	0.22487074
72	0x3e51a570	0.20473266
73	0x3dad7e7c	0.084713906
74	0xbb783500	-0.0037873387
75	0x3c0368e0	0.00802061
76	0x3d3ba9c8	0.045816213
77	0x3e71d916	0.23617968
78	0x3d8970e0	0.06710982
79	0x3e5067fa	0.20352164
80	0xbe46a260	-0.19397879
81	0xbe4fbfea	-0.20288053
82	0xbd646938	-0.055764407
83	0x3d84c108	0.0648213
84	0x3d5ea3e8	0.054355532
85	0xbd24df88	-0.04025224
86	0x3deb8010	0.11499035
87	0x3ce07dc0	0.027403712
88	0xbe13da6a	-0.14438787
89	0xbdfe315c	-0.12411758
90	0x3e5a1b2a	0.21299425
91	0x3e5e414a	0.21704593
92	0xbe50d94a	-0.20395389
93	0xbe313090	-0.17303681
94	0xbd2cfa78	-0.042231053
95	0xbd799a30	-0.06093806
96	0xbdf320a0	-0.11871457
97	0x3d9abfc4	0.07556108
98	0xbe0b91c4	-0.13629824
99	0x3b61c700	0.0034450889
100	0x3e404b46	0.18778715
101	0x3dd526d8	0.104077995
102	0xbdf1a770	-0.11799514
103	0xbe24ce7e	-0.16094396
104	0x3d0f6c38	0.035015315
105	0x3e1af94e	0.15134165
106	0xbcec3af0	-0.028836697
107	0x3e23bf3a	0.15990916
108	0xbe68d946	-0.22739133
109	0x3d6fd7d0	0.058555424
110	0xbe1c0746	-0.1523715
111	0x3dfbbd34	0.12291947
112	0x3e7e35ec	0.24825257
113	0x3e64b388	0.2233411
114	0x3d724610	0.059148848
115	0xbd057b88	-0.03258851
116	0xbe72965a	-0.23690167
117	0x3e55b1c8	0.208686
118	0xbe4f2e94	-0.20232612
119	0x3df85130	0.1212486
120	0x3d5d21c0	0.053987265
121	0x3e2f7b4e	0.17136881
122	0xbaa0f600	-0.0012280345
123	0xbe16b184	-0.14716154
124	0xbd1dbd68	-0.03851071
125	0xbe7b26bc	-0.24526495
126	0xbc0f1640	-0.008733332
127	0xbcb77410	-0.02239421
128	0xbd6a5170	-0.05720657
129	0x3e0a402c	0.13501042
130	0xbe2af99c	-0.16696781
131	0x3e5f3d36	0.21800694
132	0x3e5b0756	0.21389517
133	0xbe269a1c	-0.16269726
134	0x3e41586a	0.18881384
135	0xbdc199b8	-0.09453148
136	0xba840f00	-0.0010075271
137	0x3e2b4a02	0.1672745
138	0x3d689e30	0.056791484
139	0xbd03d538	-0.032185763
140	0xbdd5c318	-0.10437602
141	0xbe1803fc	-0.1484527
142	0xbdbc541c	-0.0919573
143	0x3e719166	0.23590621
144	0x3de3dc6c	0.111260265
145	0x3d47ec00	0.04880905
146	0xbca5a9e0	-0.020222604
147	0xbe2628de	-0.16226527
148	0x3e3cc84a	0.18435779
149	0xbe0ecad2	-0.13944557
150	0xbdc74820	-0.097305536
151	0x3e60a6ec	0.21938676
152	0x3e6b769a	0.22994462
153	0x3e65b03e	0.22430512
154	0xbc43ce00	-0.01195097
155	0x3ce86110	0.028366596
156	0x3d6e5328	0.058184773
157	0x3e67f9ee	0.22653934
158	0xbb81f940	-0.0039664805
159	0xbcf8b160	-0.030358016
160	0x3e1b0516	0.15138659
161	0xbd3ce2c8	-0.046114713
162	0xbd8535e4	-0.065044194
163	0x3e60424a	0.21900287
164	0xbd6a9ad0	-0.057276547
165	0xbbaed980	-0.0053359866
166	0xbe3f2748	-0.18667328
167	0xbe28412c	-0.16431111
168	0x3a70d600	0.0009187162
169	0x3e396c96	0.18107828
170	0xbd213200	-0.039354324
171	0x3dc0eab4	0.09419766
172	0xbdd6f15c	-0.104952544
173	0x3d52e810	0.051490843
174	0xbdfa2d78	-0.12215704
175	0xbdf58258	-0.11987752
176	0xbe046bd2	-0.12931755
177	0xbe238e28	-0.15972197
178	0x3d478168	0.048707396
179	0xbe399c98	-0.18126142
180	0xbdaeb160	-0.08529925
181	0xba72da00	-0.0009264052
182	0xbe1fef34	-0.15618593
183	0x3e06e41a	0.13172951
184	0xbd4b9160	-0.049699187
185	0x3e61166c	0.2198121
186	0x3db68968	0.08912927
187	0x3e0e9d1c	0.1392712
188	0x3e33cf88	0.17559636
189	0xbe04f4d6	-0.12984022
190	0x3c4b90c0	0.012424648
191	0x3d92b800	0.071640015
192	0xbe01a5f0	-0.12660956
193	0x3d1f4a98	0.038889498
194	0x3dfde854	0.12397829
195	0xbe38b570	-0.18037963
196	0xbe1999ce	-0.15000078
197	0xbe026fa8	-0.12737906
198	0xbe5e6f78	-0.2172221
199	0xbd466a18	-0.048441023
200	0xbe11f33c	-0.14252943
201	0x3c825ef0	0.01591441
202	0x3dcc0780	0.09962368
203	0xbdfa8050	-0.12231505
204	0x3da71420	0.081581354
205	0xbe27476a	-0.16335836
206	0x3e4fa256	0.2027677
207	0x3e629d3a	0.2213029
208	0x3deb9384	0.11502746
209	0xbe42351c	-0.18965572
210	0x3df7d270	0.12100685
211	0x3af0d100	0.0018372834
212	0x3d62d4a8	0.055378586
213	0xbdbbd05c	-0.09170601
214	0xbe3855b0	-0.18001437
215	0xbd306c98	-0.043072313
216	0xbdae49cc	-0.085101694
217	0x3e25ecde	0.16203639
218	0x3b91fb00	0.0044549704
219	0xbe7abaaa	-0.24485269
220	0xbe0596ee	-0.13045856
221	0xbdf156e0	-0.11784148
222	0x3e042470	0.12904525
223	0xbe7f8c04	-0.24955755
224	0x3e4bb864	0.19894558
225	0x3df8301c	0.12118551
226	0xbe7beee4	-0.24602848
227	0x3e37956e	0.17928097
228	0xbd09d1f8	-0.033647507
229	0xbdafe998	-0.08589476
230	0xbdf87958	-0.121325195
231	0x3a354c00	0.0006915927
232	0xbd232780	-0.039832592
233	0xbd6f90d8	-0.058487743
234	0x3e25022c	0.1611411
235	0xbdfd1df0	-0.12359226
236	0xbe619674	-0.2203005
237	0x3daa27f0	0.08308399
238	0x3e799cd4	0.24376231
239	0x3e72066e	0.23635265
240	0x3e7381fa	0.23780051
241	0xbe71971e	-0.23592803
242	0xbe1bd82a	-0.15219179
243	0x3e49b558	0.19698083
244	0xbd9cab2c	-0.07649836
245	0xbe50d474	-0.20393544
246	0x3d854788	0.06507784
247	0x3e18195c	0.14853424
248	0xbe544940	-0.20731068
249	0xbe38af44	-0.18035609
250	0x3e1a17a4	0.1504808
251	0x3de06a30	0.10957754
252	0x3c2716e0	0.010198325
253	0xbd0014a8	-0.0312697
254	0x3db22ed0	0.08700335
255	0x3e74b386	0.23896608

bias f4 [16]
0	0x3e6f1e1a	0.23351327
1	0xbde1d91c	-0.110277385
2	0xbda795e0	-0.08182883
3	0xbdfafeb0	-0.12255609
4	0x3e5f9874	0.218355
5	0x3e14a334	0.14515382
6	0x3e37ec46	0.17961225
7	0x3c1ae2a0	0.009453446
8	0x3d92521c	0.07144567
9	0x3e76471c	0.24050564
10	0x3e0b627c	0.13611788
11	0x3e000d10	0.12504983
12	0xbd2c6d30	-0.042096317
13	0xbd048af8	-0.032359093
14	0xbe7e71ec	-0.24848145
15	0xbd7126c8	-0.058874875

weight f4 [1, 48]
0	0x3d3230c0	0.043503523
1	0x3be692c0	0.007036537
2	0x3d3067e0	0.043067813
3	0x3d9e9952	0.07744087
4	0xbd871a0f	-0.06596767
5	0xbdc662fa	-0.09686847
6	0x3dff199c	0.124560565
7	0xbd4fd0d2	-0.050736256
8	0xbc1768c0	-0.009241283
9	0x3cae64d0	0.021288306
10	0x3dedae74	0.1160554
11	0x3df74aec	0.12074837
12	0x3d904ec4	0.07046273
13	0x3dd8bacc	0.10582504
14	0xbe0dff49	-0.13866915
15	0xbd964016	-0.07336442
16	0x3dabaf34	0.08383027
17	0x3dfeee74	0.12447825
18	0xbdd7edce	-0.105434045
19	0xbde92a5e	-0.11385034
20	0xba784c00	-0.0009471774
21	0xbdbe568a	-0.0929385
22	0xbdb4a27b	-0.08820053
23	0x3dc2b5cc	0.09507331
24	0xbe0ba2a6	-0.13636264
25	0x3d878440	0.066170216
26	0x3c4a76d0	0.012357429
27	0x3e0793a8	0.1323992
28	0xbd993979	-0.07481665
29	0x3cc2fac0	0.023801208
30	0xbe10450b	-0.14088838
31	0xbcdf3f9c	-0.027252011
32	0xbd4469de	-0.047952525
33	0x3df7d7a8	0.1210168
34	0xbccc59d0	-0.02494517
35	0xbd7ef646	-0.062246583
36	0x3d991084	0.07473853
37	0xbd052f94	-0.032516077
38	0x3d2fdbb0	0.04293412
39	0xbd9ed689	-0.07755763
40	0xbdd3d5fc	-0.10343549
41	0x3d85d116	0.065340206
42	0xbdbcc3c0	-0.09217024
43	0x3ce03780	0.027370214
44	0x3d67eee8	0.056624323
45	0xbd9ab49d	-0.075539805
46	0xbd540f04	-0.051772133
47	0x3d173c80	0.03692293
