XDeepFM_Model/cin.pt (torch, 12384 bytes, 5 tensors)

weight f4 [16, 4, 1]
0	0xbec9587e	-0.39325327
1	0x3dee4110	0.116335034
2	0x3d877b70	0.06615341
3	0x3e7224c8	0.23646843
4	0xbe33a178	-0.17542064
5	0xbebf30d0	-0.37341928
6	0xbe91c9c2	-0.28474241
7	0x3e9cac06	0.30599993
8	0x3eac7816	0.33685368
9	0x3e668bbc	0.22514242
10	0x3e081b7c	0.13291734
11	0x3c210800	0.0098285675
12	0xbd085870	-0.033287466
13	0xbea2c1c8	-0.31788468
14	0x3eff4872	0.4985996
15	0x3ed15a86	0.40889376
16	0xbe99284a	-0.2991355
17	0xbe0261a4	-0.1273256
18	0xbe881ad6	-0.26582974
19	0x3e7c5fd0	0.24645925
20	0x3e81e71e	0.2537164
21	0x3ed133f8	0.40859962
22	0xbeb885a4	-0.3603946
23	0x3ef095e4	0.46989357
24	0x3e9d481a	0.30719072
25	0x3eed8cae	0.46396393
26	0xbe96e658	-0.29472613
27	0x3eec79e4	0.46186745
28	0x3e0e0354	0.13868457
29	0x3e9f6c80	0.31137466
30	0xbd6b4970	-0.057443082
31	0x3d88daa0	0.066823244
32	0x3d722ba0	0.059123635
33	0xbe1cf260	-0.15326834
34	0xbda2c170	-0.079470515
35	0x3ed7ba1a	0.42134172
36	0x3e4af66c	0.19820565
37	0x3e3b20f0	0.18274283
38	0xbebe4516	-0.37162083
39	0xbcb0a780	-0.021564245
40	0xbe805892	-0.25067574
41	0x3ea43d6c	0.3207811
42	0xbe17412c	-0.14770955
43	0x3dc82980	0.097735405
44	0xbe429310	-0.19001412
45	0x3eb02fe6	0.34411544
46	0x3e20e6d4	0.15713054
47	0x3efd444c	0.4946617
48	0xbe40bf5c	-0.18822998
49	0x3e849ec4	0.2590238
50	0x3ed1615c	0.40894592
51	0xbe286938	-0.16446388
52	0xbe652720	-0.22378206
53	0xbec4b280	-0.38417435
54	0x3dfa70f8	0.12228578
55	0x3c4ce640	0.012506068
56	0xbe09f18c	-0.13471049
57	0xbe39a2e0	-0.18128538
58	0x3e1c1b64	0.15244824
59	0xbe09c6f0	-0.13454795
60	0xbebe1dfc	-0.3713225
61	0x3e9fc1da	0.31202585
62	0x3ebf6560	0.3738203
63	0xbdb2a798	-0.08723372

bias f4 [16]
0	0x3e11151c	0.14168209
1	0xbd880ea8	-0.066434205
2	0xbdcc57b8	-0.099776685
3	0x3eefd290	0.46840334
4	0xbd7f5970	-0.062341154
5	0xbeed9862	-0.4640532
6	0x3e56d1a4	0.20978409
7	0xbe7c2fc4	-0.24627596
8	0x3ce16ae0	0.027516782
9	0xbe97058a	-0.29496413
10	0xbee337e6	-0.44378585
11	0xbe7e9694	-0.24862128
12	0xbb4c1a00	-0.0031143427
13	0xbe57f2e0	-0.21088743
14	0xbe8b1d46	-0.2717077
15	0x3e95d27a	0.29262143

weight f4 [16, 32, 1]
0	0xbe0f9de5	-0.14025076
1	0x3e208d1f	0.15678833
2	0xbe0b2902	-0.13589862
3	0xbd83be35	-0.064327635
4	0x3ca93c90	0.020658761
5	0x3d22a984	0.039712444
6	0xbde953c6	-0.11392932
7	0x3e011e75	0.12609275
8	0xba55a200	-0.0008149445
9	0xbe2a1070	-0.16607833
10	0x3db8ac76	0.09017269
11	0x3dcd15a2	0.10013892
12	0x3dac35e6	0.08408718
13	0x3ab88a00	0.0014079213
14	0xbe1e8c40	-0.15483189
15	0xbdc45c7f	-0.09587955
16	0xbceee5c0	-0.029162288
17	0xbdd75b61	-0.10515476
18	0xbe0a6482	-0.13514903
19	0xb9213800	-0.00015375018
20	0xbcfce5b0	-0.030871242
21	0x3d2a2bd4	0.041545704
22	0xbe13a669	-0.14418949
23	0x3c5c99e0	0.013464421
24	0xbe02cf84	-0.12774473
25	0x3c266060	0.0101548135
26	0x3db06ae2	0.08614136
27	0xbb7b83c0	-0.003837809
28	0xbe3477d6	-0.17623839
29	0x3db21682	0.08695699
30	0x3980d400	0.00024572015
31	0xbe156684	-0.14589888
32	0x3d28c970	0.04120773
33	0x3d3d56e8	0.04622546
34	0xbe165552	-0.14680985
35	0x3e049d37	0.12950598
36	0x3cd702c8	0.026246443
37	0xba92d600	-0.0011202693
38	0xbe2593d4	-0.16169673
39	0x3dbe8bbe	0.093039975
40	0x3ca1acb0	0.019735664
41	0x3daab88a	0.08335979
42	0xbdb70bd2	-0.089378014
43	0x3d374e08	0.04475215
44	0x3dd0477e	0.10169886
45	0x3d9681ce	0.07348977
46	0x3e333091	0.17498995
47	0xbdb42296	-0.08795659
48	0x3d901740	0.070356846
49	0x3dd83a36	0.10557978
50	0x3ccb2d68	0.024801925
51	0xbdfb66c2	-0.12275459
52	0x3e26ce5d	0.16289659
53	0xbdc6966f	-0.09696662
54	0x3d3d40b4	0.046204284
55	0xbdab992c	-0.083788246
56	0xbdbc1834	-0.09184304
57	0x3d8146d6	0.06312339
58	0xbca2e1e8	-0.019883111
59	0xbd7358c4	-0.059410825
60	0x3cd90ae8	0.026494458
61	0xbd3f1b80	-0.046657085
62	0xbde500f6	-0.11181824
63	0x3e1fee53	0.15618257
64	0xbc16b7e0	-0.009199113
65	0x3c509880	0.012731671
66	0xbe34d3b9	-0.17658891
67	0xbc7d8710	-0.015474096
68	0xbd99accb	-0.07503661
69	0x3e0715d5	0.13191922
70	0xbd398544	-0.045293108
71	0xbe19b3c3	-0.1500998
72	0x3e142c63	0.14470057
73	0xbe19682f	-0.14981149
74	0x3d28a220	0.04117024
75	0x3d6e9b7c	0.05825375
76	0x3da90c7a	0.08254333
77	0xbe24c133	-0.16089325
78	0x3dc21406	0.094764754
79	0x3e001191	0.12506701
80	0x3e11cfbd	0.14239402
81	0x3dd0cb02	0.10194971
82	0x3e0f4a4f	0.1399319
83	0xbbc7a800	-0.006093025
84	0xbd29be18	-0.041441053
85	0xbdd8ef23	-0.10592487
86	0x3da43d0e	0.08019458
87	0xbc8c0c18	-0.01709561
88	0x3dd37c02	0.10326387
89	0x3d767220	0.06016743
90	0xbd326f78	-0.043563336
91	0xbcd15d28	-0.025557116
92	0xbcb7ccc0	-0.0224365
93	0xbd7b9030	-0.061416805
94	0x3daa574a	0.0831743
95	0x3d304ca4	0.04304184
96	0x3c366a10	0.011133686
97	0x3d9da8a2	0.0769818
98	0x3e166a91	0.1468909
99	0xbe1eefdb	-0.15521185
100	0x3db8e0fa	0.09027286
101	0x3c9b99d0	0.018994242
102	0xbd44e9a0	-0.048074365
103	0x3b811ec0	0.0039404333
104	0x3bfbc880	0.0076838136
105	0xbdf5ec36	-0.12007944
106	0xbe1db346	-0.15400419
107	0x3d255cd8	0.040371746
108	0xbe11dcd7	-0.142444
109	0xbde09c90	-0.10967362
110	0xbd59bca6	-0.053158425
111	0x3e2ca9df	0.16861676
112	0xbe0afa60	-0.13572073
113	0x3ada7880	0.0016667992
114	0x3c65f0b0	0.014034435
115	0x3db7995e	0.08964799
116	0x3df09266	0.11746673
117	0xbe05b26d	-0.13056345
118	0x3e2fb957	0.17160545
119	0x3dc15336	0.09439699
120	0x3d011934	0.031518176
121	0xbd2f9000	-0.04286194
122	0x3e2c413b	0.16821758
123	0xbcb4d168	-0.022072509
124	0xbe03f86f	-0.12887739
125	0x3d3f0f74	0.046645597
126	0xbdf0f38a	-0.117652014
127	0xbdf8a8c8	-0.121415675
128	0x3e099e55	0.13439305
129	0xbe2cb14b	-0.16864507
130	0xbdf5c960	-0.120013
131	0xbda0f7eb	-0.078597866
132	0x3dcd2dae	0.10018478
133	0xbe138694	-0.14406806
134	0x3c4dfe70	0.01257287
135	0x3dae0cba	0.08498521
136	0xbdc9d8b6	-0.098557875
137	0xbdaac96e	-0.08339201
138	0x3c8ef398	0.017450139
139	0x3dd354a2	0.10318877
140	0xbe150dbe	-0.14556023
141	0x3b8387c0	0.0040139854
142	0xbd8542c9	-0.06506879
143	0x3d1d3918	0.038384527
144	0xbb19dec0	-0.0023478717
145	0xbdfd0c1e	-0.12355827
146	0xbdc547a4	-0.09632805
147	0x3e0410d5	0.12897046
148	0xbd8238c5	-0.06358484
149	0x3e2bff47	0.167966
150	0xbddd36f4	-0.10801497
151	0x3d545be4	0.051845446
152	0xbde8eb0e	-0.11372958
153	0xbc3f7b80	-0.01168716
154	0x3cc7e658	0.024401829
155	0xbde3ce11	-0.111232884
156	0xbe2182f7	-0.15772615
157	0xbe157c1c	-0.14598125
158	0x3cd35138	0.025795564
159	0xbe2be941	-0.16788198
160	0xbdbb377a	-0.09141441
161	0xbcc60a68	-0.024174884
162	0xbd88a66e	-0.06672369
163	0x3ddbf9be	0.10740994
164	0xbdd0f34d	-0.10202656
165	0xbe01c083	-0.12671094
166	0x3dde59a6	0.10856943
167	0xbd3874a8	-0.045033127
168	0xbc417730	-0.011808202
169	0xbab1fe80	-0.0013579875
170	0xbdd237c6	-0.10264544
171	0xbe2308c7	-0.15921317
172	0x3dd1d8c6	0.102464244
173	0x3e19952d	0.14998312
174	0x3e3009ed	0.17191286
175	0x3da3df6e	0.080016
176	0x3df5aebe	0.1199622
177	0xbd331bc4	-0.04372765
178	0xbd386c08	-0.0450249
179	0x3c46c7d0	0.0121326
180	0xbe068eb6	-0.13140377
181	0x3e0ff60f	0.14058708
182	0xbe09517b	-0.13409989
183	0x3d9a3fce	0.07531701
184	0xbceb77b0	-0.028743595
185	0xbe15048f	-0.1455252
186	0x3becbd40	0.007224709
187	0x3cbc0170	0.022949904
188	0xbd6cb532	-0.05778999
189	0x3cdfbff0	0.027313203
190	0xbdf4554e	-0.11930333
191	0xbe2c3c85	-0.16819961
192	0xbe0fd5a4	-0.14046341
193	0xbde01a88	-0.109425604
194	0x3e1741f7	0.14771257
195	0xbe05ac3c	-0.13053983
196	0xbe023794	-0.12716514
197	0xbe00f870	-0.12594771
198	0xbe255cd6	-0.16148695
199	0xbde745a1	-0.112925775
200	0xbdc9bbc4	-0.098502666
201	0x3e1dff9f	0.15429543
202	0xbe2ac382	-0.16676143
203	0xbddd0d15	-0.10793511
204	0x3ddcb2ee	0.10776316
205	0x3e25a7b3	0.16177253
206	0x3e2fc80f	0.1716616
207	0xbe0d75cc	-0.13814467
208	0xbe1d3998	-0.15354002
209	0x3d177b14	0.03698261
210	0xbe16aa76	-0.14713463
211	0x3d684370	0.05670494
212	0x3e21f277	0.15815149
213	0xbe02e6e9	-0.12783398
214	0xbd6eea76	-0.058329068
215	0xbdece950	-0.11567938
216	0xbdc616c5	-0.09672312
217	0x3e27c81b	0.16384928
218	0xbe316764	-0.17324597
219	0xbe2a299b	-0.16617434
220	0x3d5a8e5c	0.05335842
221	0x3cf6beb8	0.030120239
222	0x3d5d69d4	0.054056004
223	0xbddbeaa3	-0.10738113
224	0x3e32c87d	0.17459293
225	0x3d0b7f40	0.034056902
226	0x3e133c39	0.14378442
227	0x3e30403b	0.17212002
228	0xbd351f7c	-0.04421948
229	0x3da9cdfa	0.0829124
230	0xbe14f62b	-0.1454703
231	0xbc0a2fe0	-0.008434266
232	0xbcc0db90	-0.023542196
233	0xbb895580	-0.0041911006
234	0x3e322275	0.17395957
235	0x3d6086c8	0.054816037
236	0xbdc7f52f	-0.09763562
237	0xbcd1be98	-0.025603577
238	0xbd811714	-0.0630323
239	0xbe01c4d2	-0.12672737
240	0xbdfffebc	-0.124997586
241	0xbdd0706e	-0.10177694
242	0xbdfb38c6	-0.12266688
243	0xbd93afed	-0.072112896
244	0x3dd30e9e	0.103055224
245	0x3ce84c20	0.028356612
246	0xbc219300	-0.009861708
247	0xbd9d686a	-0.07685931
248	0xbdf086c5	-0.11744455
249	0xbdcdba02	-0.10045244
250	0x3d9e5686	0.07731347
251	0xbdbd4314	-0.0924131
252	0xbc52b560	-0.012860626
253	0x3da2bf0a	0.07946594
254	0x3d7d1f70	0.06179756
255	0xbe187038	-0.14886558

bias f4 [16]
0	0xbcc2afa8	-0.0237654
1	0x3dfc867e	0.1233034
2	0xbe1c5a01	-0.15268709
3	0x3d87559c	0.066081256
4	0xbd117114	-0.03550823
5	0x3e30cd25	0.17265756
6	0x3d8ed702	0.06974603
7	0x3de9cdb6	0.114161894
8	0xbde8d40d	-0.113685705
9	0x3c9d2858	0.019184276
10	0x3c482340	0.0122154355
11	0xbc234040	-0.009964049
12	0xbe241949	-0.1602527
13	0xbd8fa67e	-0.07014178
14	0xbd16e74c	-0.036841676
15	0xbe308a23	-0.17240195

weight f4 [1, 32]
0	0xbd845286	-0.064610526
1	0x3e1279eb	0.1430432
2	0x3e248085	0.16064651
3	0xbd03b6c8	-0.032156736
4	0xbbd90480	-0.006622851
5	0x3e2c33a5	0.16816576
6	0xbd02b208	-0.031908065
7	0xbe2f0179	-0.17090406
8	0xbdcfa140	-0.10138178
9	0xbc8bb9a8	-0.017056301
10	0x3e27e14d	0.16394539
11	0xbdde3167	-0.108492665
12	0x3dd65d72	0.10467042
13	0xbe2df7ae	-0.16989014
14	0x3d07ff80	0.03320265
15	0xbc7d1ca0	-0.015448719
16	0xbe0b2d66	-0.13591537
17	0xbdc46dc4	-0.09591249
18	0xbca46e40	-0.020072103
19	0x3c097e30	0.008391902
20	0x3d81abc4	0.0633159
21	0xbba9b480	-0.005178988
22	0xbdfcd3ba	-0.12345071
23	0xbe34e686	-0.17666063
24	0x3d7918ec	0.060814783
25	0x3daecb1a	0.08534832
26	0x3d127054	0.035751656
27	0x3d63e930	0.055642307
28	0x3dbe70a2	0.09298827
29	0xbd86d436	-0.06583445
30	0xbe24c4e4	-0.16090733
31	0x3e0d31c3	0.13788514
