XDeepFM_Model/XDeepFM_Model.pt (torch, 208949 bytes, 12 tensors)

weight f4 [2625, 16]
00000000: e142 293d 2402 663c ccb3 723c 2a54 19bd
00000010: 331f 3d3d 3063 91bb 276f 093d 26c5 e43c
00000020: 9024 6f3c ce55 25bd 918f 0a3d 5743 31bd
00000030: e406 02bd f068 97bc a1dd 223d ce8a 813c
00000040: 126f b43c 9e9c 803c c2c6 11bd a864 3a3c
00000050: b15d 1e3d f110 98bc e6e0 d73c 657f 143d
00000060: b178 103d 806a 41bb f478 0d3c c826 39bd
00000070: a057 adbb e7fb 3f3d 6fab 353d 72cb 8ebc
00000080: 04cd 04bd 5be0 163d 70f1 2b3c d09b 84bc
00000090: f23f ec3c c811 0abd 6af2 0abd 1965 afbc
000000a0: 42ac ed3c e20f c63c dc76 8cbc 3329 f3bc
000000b0: 8450 5a3c 035c c0bc 1fff 17bd 2757 42bd
000000c0: 91e2 0e3d 80c0 88ba 2459 393c 5953 063d
000000d0: 90c1 833b 69f0 213d e8f9 bfbc af8e 113d
000000e0: 868a 903c ecc7 2abc 781b f2bc 6857 d13b
000000f0: 7a73 cdbc 63d6 323d b78c babc 0ae3 923c
00000100: 6130 bebc e03a 95bc 0e88 f83c 64b4 33bc
00000110: 80b8 9abc 301e 723b d652 a63c 592e 083d
00000120: 59e9 fdbc c83e bcbb 5b53 91bc b036 06bc
00000130: 4eeb 0bbd d82f e43b 5c50 423c 125f 10bd
00000140: 9a74 f73c 445c 0abd 80f7 69bb daf5 cc3c
00000150: 3af7 ba3c 407a 0f3a 4a8e 813c e864 cabc
00000160: 80f8 44bc 202d 793b c07b a13b b13f 1c3d
00000170: a0b1 d8ba ff2c 1a3d d935 2f3d 80d1 9c39
00000180: 387d 893b 8e9b 9d3c 80cb 683b a235 8e3c
00000190: b5f1 023d 60c1 77bc ea4f a33c ab2c 113d
000001a0: de3f f4bc fa31 c03c a9e9 22bd 186c e5bb
000001b0: a842 40bd ac43 72bc 4d13 0e3d 59c5 95bc
000001c0: 28f9 78bc 2045 96bc 42df 34bd 2b1a 0dbd
000001d0: d79d 153d d5e2 0a3d 8164 40bd ceb1 de3c
000001e0: 40f8 123c b3e0 31bd 801a 97ba ae39 c73c
000001f0: 0f39 313d 0c30 87bc 89ca b1bc ff7a 023d
00000200: 5dca 093d 50f5 cf3b 3d77 2fbd f7b2 f1bc
00000210: 7095 eabb cd92 173d 06d8 ea3c 1689 b93c
00000220: 32c4 81bc 2b14 f6bc 4682 35bd ad9f 1a3d
00000230: 2fb7 2dbd e6dd 9fbc 80cb d13a f8c1 49bc
00000240: 40c9 d0ba 6ca5 c8bc 6b2c 313d 5adb 23bd
00000250: a8e5 7fbc b04b 24bd 8b06 c4bc d0ca d23b
00000260: 3083 1dbd 8064 81bb c38a 2dbd 36c3 15bd
00000270: 5c43 5a3c 5a0f 16bd 54fd a7bc 32f0 da3c
00000280: 3f99 3b3d 2247 c73c c719 333d 201f 89ba
00000290: daa1 2abd 7a86 c13c ef00 183d c402 ecbc
000002a0: fa24 cc3c 3ab2 9b3c 40ea 99ba 693d 3f3d
000002b0: e04d 3e3b 30a3 1abd c0f3 23bb b069 4fbc
000002c0: 78a6 eebb e6c5 babc 1609 f43c 2e64 f33c
000002d0: 4072 0c3c eb62 0c3d 3cc3 90bc 241a eebc
000002e0: b8fe 5bbc 74b8 94bc 9a7b ba3c 55ad 26bd
000002f0: aeee 2abd 585f 54bc 59e3 afbc 781e e2bc
00000300: 665c f73c 1e62 923c 7111 1bbd a0d3 dbbb
00000310: 300a 4d3c 9dcf 2e3d ec05 2fbc 0e4b eb3c
00000320: db11 1d3d 8028 c13a c235 9c3c b269 ac3c
00000330: c8a4 89bb 75d4 3f3d dd62 313d 6231 c33c
00000340: 4748 2dbd f04f af3b 90c1 39bd 8075 48ba
00000350: 58b2 203c 8d64 103d 5275 adbc 9d38 343d
00000360: 7839 ce3b 7889 c53b 120b f53c 00d5 9f3b
00000370: 8489 34bd 3457 0cbc d0fa 7abb e56c 063d
00000380: 705a ba3b a0a8 b53b d2ed c43c 0069 683c
00000390: d379 343d 91bc debc 4e18 c03c d81f 4bbc
000003a0: 0081 3539 7833 243c 9184 1a3d a13b 33bd
000003b0: 0801 83bc 20b4 94ba 70e3 a43b ccca d9bc
000003c0: 2dd4 d6bc 2a86 9dbc f8b0 40bc abaa 183d
000003d0: a712 97bc d893 f43b e320 383d 846a 28bc
000003e0: a669 ac3c 1021 0cbb 42e2 e23c 2bc3 083d
000003f0: 362d dabc 2b86 203d 88db dabc a20d a2bc
0.041323546 0.014038596 0.014813375 -0.03743378 0.046172332 -0.004436873 0.03355327 0.027926039
0.0145961195 -0.040365033 0.03382832 -0.04327711 -0.031744853 -0.018482655 0.039762143 0.015813258
0.022025619 0.01569968 -0.03558994 0.011376537 0.03866357 -0.018562766 0.026352357 0.036254305
0.03527135 -0.0029512942 0.0086347945 -0.045203 -0.0052899867 0.046871092 0.044352945 -0.017430995
-0.03242208 0.036835056 0.010494575 -0.016187578 0.028839085 -0.033708364 -0.03392259 -0.021410512
0.029012803 0.024177495 -0.01714652 -0.029682731 0.0133248605 -0.023481375 -0.037108537 -0.047446396
0.03488404 -0.0010433346 0.011312757 0.03279433 0.004020877 0.039535914 -0.023434594 0.035536464
0.017644178 -0.010423642 -0.029554114 0.0063885935 -0.025079478 0.043661486 -0.022772176 0.017930526
-0.023216428 -0.01821655 0.030338313 -0.010968301 -0.018886805 0.0036944263 0.020303171 0.033247326
-0.030995058 -0.005744789 -0.017739942 -0.008191749 -0.03415995 0.006963711 0.0118599795 -0.035246916
0.030206967 -0.033779398 -0.00357005 0.025019575 0.022822965 0.0005473234 0.015814919 -0.024706319
-0.012022138 0.0038021281 0.004928082 0.03814668 -0.0016532429 0.037640568 0.042775963 0.00029910728
0.0041958354 0.019239213 0.0035521686 0.017359558 0.03196879 -0.015121788 0.019935567 0.03544299
-0.02981561 0.02346133 -0.039773617 -0.007001411 -0.04693857 -0.014786642 0.034686375 -0.01828258
-0.015196122 -0.018343508 -0.044158228 -0.034448784 0.03652748 0.03390773 -0.046970848 0.027184393
0.00897032 -0.04342718 -0.0011528283 0.024319496 0.043267306 -0.016502403 -0.021703022 0.03185558
0.033640254 0.006346382 -0.042838324 -0.029504282 -0.0071589276 0.037005235 0.028667461 0.022648375
-0.015840624 -0.030038914 -0.04431369 0.037749935 -0.042411026 -0.01951499 0.0016006082 -0.012314312
-0.0015929118 -0.024492942 0.04325525 -0.04000411 -0.015618719 -0.040111244 -0.023928901 0.0064328685
-0.03845519 -0.003948748 -0.04236866 -0.03656312 0.013321724 -0.036635734 -0.020506538 0.026725862
0.045800444 0.024325911 0.043725755 -0.0010461546 -0.04165826 0.023623694 0.037110265 -0.028809913
0.024919976 0.019005883 -0.0011742786 0.046689425 0.0029038116 -0.037753284 -0.0025017112 -0.012659475
-0.007283028 -0.022799443 0.029789489 0.029710855 0.008572161 0.034274023 -0.01767122 -0.0290652
-0.013427429 -0.01815436 0.022764016 -0.040692646 -0.04173153 -0.012962185 -0.021470712 -0.02760242
0.030195426 0.017869052 -0.03785843 -0.0067085773 0.012514636 0.042678464 -0.010682564 0.028722312
0.038347106 0.0014736801 0.019068602 0.021046493 -0.0042005517 0.046833474 0.043307174 0.023827258
-0.042305257 0.0053501055 -0.04535061 -0.00076469034 0.009808145 0.035252143 -0.021174107 0.043999303
0.006293472 0.0060283504 0.029912505 0.0048776865 -0.044076458 -0.008565713 -0.0038296469 0.032818694
0.0056870505 0.0055437833 0.024039183 0.01418519 0.044061493 -0.027189525 0.02344909 -0.012397729
0.00017309561 0.010022037 0.03772408 -0.04375804 -0.015991703 -0.0011345185 0.0050319955 -0.026585959
-0.02622422 -0.019229013 -0.011760943 0.037272137 -0.018441511 0.0074639134 0.04495324 -0.010279302
0.02104647 -0.0021382011 0.027695779 0.03338925 -0.026632886 0.039190453 -0.026716009 -0.019781891

weight f4 [16, 4, 1]
00000000: ea90 c6be d6ef a9be 289e f43e 2876 223e
00000010: 403f 723e 8096 643d 7041 833d 7c0a 3d3e
00000020: 88e9 fdbd d88b d0be 5a58 88be f081 e9be
00000030: d01b a73d 3c96 c63e 32db adbe 90df 18bd
00000040: 2084 00bd b051 fcbe 441f fe3e bc5b 89be
00000050: f88a bd3d c0da 41be d8f1 c63d 445f 453e
00000060: 24e1 4dbe cca1 fbbe c661 ad3e 4e1e c4be
00000070: 009c c6bb 30a5 3ebd b0f0 02be eeeb f63e
00000080: 92fa f83e e02b f5be 1aa1 c2be 7845 aabd
00000090: 2082 57be b878 a8be 72da bb3e f68c 8fbe
000000a0: c082 233e da7a cbbe b03f 2e3e 74d3 433e
000000b0: 6cfc af3e ac3a 4b3e 28ed eabe d038 a13d
000000c0: 924c ac3e 1a79 a7be fcc5 dbbe e8aa 37be
000000d0: 0020 7bbb 5033 27bd ac72 8b3e 9047 94be
000000e0: d026 1cbd 14eb d83e b26e e1be a6c7 c83e
000000f0: 78e7 a0bd 4014 e23c b626 97be 208e b63d
-0.38782436 -0.33190793 0.47776914 0.15865386 0.2365694 0.05580759 0.064089656 0.1846103
-0.12398058 -0.40731692 -0.26629907 -0.45606947 0.08159602 0.38786495 -0.33956295 -0.03732258
-0.031376004 -0.49281073 0.4963323 -0.268278 0.09255022 -0.18931103 0.09714097 0.19274622
-0.20105416 -0.4914688 0.33863658 -0.3830437 -0.006061077 -0.046544254 -0.12787127 0.48226875
0.4862867 -0.47885036 -0.38013536 -0.08314031 -0.21045732 -0.329046 0.36690098 -0.28037232
0.15967846 -0.39742166 0.17016482 0.19123632 0.3437227 0.198466 -0.4588406 0.07872164
0.3365217 -0.3270958 -0.42924488 -0.1793629 -0.0038318634 -0.04082042 0.27235925 -0.28960848
-0.038122952 0.4236685 -0.44029766 0.3921482 -0.07856649 0.027597547 -0.29521722 0.08913827

bias f4 [16]
00000000: acd5 aabe a852 47be e066 a03c a035 463d
00000010: 7472 85be 0ad1 e53e 084e e4bd 8066 99bd
00000020: 0e42 a7be c411 b4be d838 e53d f868 e93d
00000030: 9846 903d fcc4 e2be f497 17be e487 acbe
-0.33366144 -0.19465125 0.019580305 0.048390985 -0.26063883 0.44886047 -0.11147696 -0.074902534
-0.32667583 -0.35169804 0.11192483 0.11396974 0.07044715 -0.44290912 -0.1480406 -0.33697426

weight f4 [16, 32, 1]
00000000: 0f29 bbbd 842e 21bd 40b2 2c3c a090 3d3d
00000010: a883 13bd f310 2d3e cea0 b63d 02e7 13be
00000020: 784c 82bd 000c 28be c70a b6bd 3ec7 963d
00000030: f9ca 2d3e 86f4 d13d 4534 123e 96d6 eb3d
00000040: 2eb2 f8bd 3e35 14be a77b 173e 2895 51bd
00000050: 596f 26be 5283 f13d d08c 963c a863 89bc
00000060: e2fd ae3d dd1d 1e3e 3c2e 14be 43e8 2d3e
00000070: 3019 f2bd d8f4 c63c f8fe f3bc 04e2 38bd
00000080: 1b0f 97bd f628 cc3d 80d9 b73b 1944 34be
00000090: 10fb 613d 4efc 873d f8e9 bfbc 9514 83bd
000000a0: 3228 91bd ff93 0b3e 1e8c ed3d bfa6 b9bd
000000b0: e043 96bc fcb0 44bd ff05 2e3e 1008 1b3d
000000c0: f0c1 b3bc 7dbf 10be 24c0 19be 7e7d a8bd
000000d0: a5b8 183e ae90 a13d 0b03 0a3e bd45 9ebd
000000e0: c2cd 983d 62cd 80bd 7061 6d3d 16a6 eb3d
000000f0: 6cd8 0dbe 5d8f d7bd 8267 f23d 14e8 1d3d
00000100: 4ec6 cb3d 52c8 14be 529b b43d 904d 573d
00000110: 0ff1 c3bd 9e0d fa3d 009f 233b 1598 2c3e
00000120: 3880 d83c 356e c4bd be47 cb3d c3c2 c6bd
00000130: 7007 7abd c0cf 22be 6812 e13c 1804 0dbd
00000140: d227 27be 55e1 d7bd e6f6 ea3d 43b3 dfbd
00000150: 6bb3 e5bd 9013 4ebd 3c6b 03be 22cc 25be
00000160: 8613 9f3d de6d c93d e19a 1fbe f480 4bbd
00000170: 96fb b5bd e60d b63d a8c6 0a3d 006a 883a
00000180: 83e1 d9bd f14b 34be ccd8 b2bd 18f8 b93c
00000190: 02a6 b73d 5aee ac3d 7552 0a3e 4ac6 55bd
000001a0: f816 a4bc 36ee dabd 86a3 efbd 1072 16be
000001b0: 5dff 213e 323c 04be 35ca 2f3e fa91 c63d
000001c0: ac0e dbbd a0b3 c0bd 0046 d8b9 d20c c13d
000001d0: 5c7d 673d 089b 89bd bb16 043e 1835 253d
000001e0: e824 e03c 279c 193e 1698 05be b5a4 1d3e
000001f0: b783 313e 38a2 cbbd 061c b0bd 4d3f 303e
00000200: 7ae8 dcbd 6a6d 24be c0d1 1a3b 85a3 93bd
00000210: 7195 cebd ea40 17be 26b2 a93d 2e08 1abe
00000220: 21c4 2e3e 3ade 70bd 508a c43c 24f0 163d
00000230: a9b4 e4bd ee83 24be 8320 27be 49b8 1c3e
00000240: bc0d ccbd 00a0 b0b9 9b70 053e d466 34bd
00000250: f826 0bbe 3bb8 313e 0fb3 033e 7c08 4f3d
00000260: 8ff6 043e 1947 033e de75 f03d f29c bc3d
00000270: 15d1 013e 6597 2ebe 06ed ca3d 928a ce3d
00000280: 165e 873d fe0b f03d ce02 b13d 4811 a03c
00000290: 2cff f1bd 7406 5e3d acc0 d7bd 20f0 643d
000002a0: 08c9 00be 9bbd 203e 8816 c23c cbaa 08be
000002b0: 7b88 fdbd 856f 313e 860d ad3d 8049 11bd
000002c0: 5e24 c63d ab51 2f3e 6848 b83c 189b ea3c
000002d0: 90a9 74bc d0af 893c da72 0fbe 48b9 0bbd
000002e0: 5f04 1a3e 2dd1 113e 1c0f 1c3d 44e3 19bd
000002f0: 35fc 24be 9ef2 b43d 58c9 f33c 75ae 0dbe
00000300: a0c8 d73b 59a9 323e c8a8 923d 9836 573d
00000310: 8bd8 17be f294 813d 0446 34bd f768 303e
00000320: 5d31 b3bd 007c 61bd 4af2 9fbd 8ddf 033e
00000330: 00d6 d239 6a13 ab3d 78a2 953d 1798 053e
00000340: 08c1 e5bd 2f11 0abe 7814 05be 9f49 c3bd
00000350: 1c3f 363d 8894 c5bc 6093 67bc d25f 6fbd
00000360: 7669 04be b993 d6bd 2ed8 cc3d 0bf9 8dbd
00000370: b00d 83bd 0e55 34be b2bc 8bbd d8c9 1fbe
00000380: f505 cebd e95b 1b3e 7c19 f1bd 647d 433d
00000390: 06ab ef3d 4063 8d3c 82b1 2bbe 3eed 9d3d
000003a0: 29ac 0c3e 6eb1 913d d49f 0f3d f01e 80bd
000003b0: 20aa 543c 003c 843d 0843 94bc b615 8bbd
000003c0: a360 003e f76a 8ebd 10d6 7fbc 48f3 ce3c
000003d0: 4c6c 46bd 5084 d5bc 5dbf 2bbe af63 013e
000003e0: 42f7 bd3d 2d1f fdbd 53ea 323e c5a6 0d3e
000003f0: d672 10be 0001 5b3a ead8 a93d 615c 153e
-0.09138691 -0.039351 0.010540545 0.046280503 -0.03601423 0.16900997 0.0891739 -0.14443591
-0.063622415 -0.16410828 -0.08888774 0.07362221 0.16971959 0.10251717 0.14277752 0.115155384
-0.1214336 -0.14473435 0.14793263 -0.051167637 -0.16253413 0.117926255 0.018377692 -0.016771153
0.08544518 0.1544108 -0.14470762 0.16983132 -0.118212104 0.024286672 -0.029784665 -0.04513742
-0.07375928 0.0996875 0.005610645 -0.17604102 0.055171072 0.0663992 -0.023426995 -0.0640041
-0.07087745 0.13630675 0.11598991 -0.090650074 -0.018342912 -0.048020348 0.16994475 0.037849486
-0.021943063 -0.14135547 -0.15014702 -0.08227061 0.14914186 0.078889236 0.13477723 -0.07728145
0.0746112 -0.06289174 0.05795425 0.11506288 -0.1385209 -0.10525391 0.11836149 0.038551405
0.09949933 -0.14529541 0.088186875 0.052564204 -0.09567463 0.122096285 0.0024966598 0.1685489
0.026428327 -0.09591333 0.09925793 -0.097051166 -0.06104225 -0.15899563 0.027474597 -0.034427732
-0.16323784 -0.105410255 0.114728734 -0.10922863 -0.11215862 -0.050311625 -0.12833875 -0.16191152
0.07767396 0.09835409 -0.15586425 -0.049683526 -0.08885877 0.0888937 0.03388086 0.0010407567
-0.10638716 -0.17607094 -0.08732757 0.022701308 0.0896721 0.084438995 0.13508017 -0.052191056
-0.020030484 -0.106899664 -0.117011115 -0.14691949 0.1582007 -0.12913588 0.1716698 0.096958116
-0.10696158 -0.09409261 -0.00041250885 0.094262734 0.056516036 -0.06719023 0.12899296 0.040333837
0.027361348 0.15000974 -0.13046297 0.15394862 0.17335401 -0.0994305 -0.08599095 0.17211647
-0.10786529 -0.16057363 0.0023623556 -0.07208923 -0.100870974 -0.14770856 0.08285932 -0.15042183
0.17067005 -0.05880568 0.023991734 0.03685011 -0.11167271 -0.16065952 -0.16320996 0.15304674
-0.09963557 -0.00033688545 0.13031237 -0.044043377 -0.13589084 0.17355435 0.12861274 0.0505452
0.1298468 0.1282009 0.117412314 0.092096224 0.12677415 -0.1704994 0.0990849 0.10085024
0.06609742 0.11721037 0.08643113 0.01953949 -0.11816248 0.054205373 -0.10534796 0.055893064
-0.12576687 0.15697329 0.023692384 -0.13346402 -0.12379547 0.17327698 0.08449845 -0.035470486
0.09674905 0.17120998 0.022495463 0.028638408 -0.014933005 0.016807467 -0.14008656 -0.034112245
0.1504073 0.1423995 0.038100347 -0.037570253 -0.16111834 0.08835338 0.029759094 -0.13836081
0.0065851957 0.17447414 0.07161099 0.0525423 -0.14828698 0.06327237 -0.044012085 0.17227541
-0.0874965 -0.055049896 -0.07809885 0.12878247 0.00040213764 0.08353312 0.07306379 0.13046299
-0.112184584 -0.13483118 -0.1299609 -0.095355265 0.04449378 -0.024118677 -0.014134258 -0.05844099
-0.12930855 -0.104773946 0.100021705 -0.06932267 -0.06399095 -0.17610571 -0.068231 -0.15604341
-0.1005973 0.1517178 -0.11772439 0.047727004 0.11702542 0.01725924 -0.16766933 0.07711266
0.13737549 0.0711392 0.035064533 -0.06255901 0.012980014 0.064567566 -0.01809837 -0.067912504
0.12536864 -0.06953996 -0.015615001 0.02526249 -0.048443124 -0.026064068 -0.16772218 0.12635683
0.09275676 -0.12359462 0.174722 0.13833149 -0.14106306 0.0008354336 0.08293326 0.14586021

bias f4 [16]
00000000: cba2 263e ec68 23be 0a35 fbbd 9441 24be
00000010: bc91 f5bd a85d 6d3d 1eb1 c03d d463 33be
00000020: 4fc4 313e f8a9 913d 041c 10bd 8bf6 dcbd
00000030: 00dd 353a 4057 a13c 98ce 813d 453f 293e
0.16273038 -0.15957993 -0.12265976 -0.16040641 -0.11990687 0.057950646 0.094087824 -0.1751855
0.17360042 0.07112497 -0.035182968 -0.10789212 0.00069375336 0.019694924 0.06338233 0.16528042

weight f4 [1, 32]
00000000: 5e42 c33d 9ec4 dbbd 789f 36bd faf6 bb3d
00000010: ff20 183e e571 1c3e a6aa 01be 40eb 6f3b
00000020: fb37 093e 600d cfbd 3f6f 33be 3003 0dbc
00000030: 2fc0 2d3e 00da e13b 1a56 0ebe 20b2 ebbd
00000040: 80e3 d3bc 20c9 ecbd 8936 313e 0561 07be
00000050: cd87 c9bd 10ba f1bd 33cd 2a3e de77 ef3d
00000060: 14ea 3cbd e642 ec3d 5197 0ebe ca30 aa3d
00000070: 4239 99bd ee5e d33d c43e 25bd 4bba febd
0.09534143 -0.10730861 -0.044585675 0.091779664 0.14856337 0.15277822 -0.12662753 0.0036608726
0.13400261 -0.10109973 -0.17522906 -0.008606717 0.16967843 0.0068924427 -0.13900033 -0.11508584
-0.025865316 -0.11561799 0.1730596 -0.13220604 -0.09840355 -0.11803067 0.1667984 0.11692785
-0.04612167 0.11536197 -0.1392491 0.08310087 -0.07481624 0.10320841 -0.04034306 -0.12437876

weight f4 [16, 32]
00000000: a823 143d eea7 cc3d 2c10 763d 0622 ca3d
00000010: 7356 b8bd 96c5 26be 5aa4 cbbd 250d 94bd
00000020: e493 3bbd 8e43 c33d ca7c a13d ea19 90bd
00000030: 4aa0 f23d 7f9d f0bd 529b ddbd 7e5c aebd
00000040: 30ee 53bc 2443 22be f152 95bd 606f 553d
00000050: 0ed1 9f3d acc3 d4bd b5ff bbbd 6ce2 2fbd
00000060: 488e 67bd 10f3 aabc db8e 0d3e 68da 8dbd
00000070: f09b c0bd 50ab 3a3d 4048 06bb 44b7 6a3d
00000080: 8522 b0bd c07d 04bb 17fe b8bd ed87 cfbd
00000090: 8281 9b3d 143e 02bd d4c3 f1bd f7b9 02be
000000a0: 38e6 29bd 9523 173e 9a39 bc3d a0e6 c33c
000000b0: fe4c 73bd 2302 d6bd a8a4 b5bd 240d 083d
000000c0: ace0 25be 15b5 1abe 12cc 16be fb51 dbbd
000000d0: 4086 133b 9549 89bd d4c5 1abd e8e4 95bc
000000e0: 79a1 1f3e c9b5 003e 1e26 b23d 207a 853c
000000f0: 9bad 2e3e a06c e1bb ceed ba3d 52e3 973d
00000100: a76f 1b3e d1d2 0a3e b2a2 16be 3abc 9fbd
00000110: bddd 9bbd c0a6 533b 74d8 dfbd 43ac 333e
00000120: d8ea 21bd 48ab dc3c 78a0 7dbd 09f0 313e
00000130: a0b7 c0bd 0d5c a5bd e08f e33b aa36 ee3d
00000140: 005b 2dbd 6418 05be 802a db3b 5c77 48bd
00000150: 800b a4bd 401c 503d ce31 83bd a968 243e
00000160: 404a 68bb 4020 2cbd 9088 8c3c d4cf 50bd
00000170: b4b6 683d 91cd 263e d2b4 b7bd 30a2 aa3c
00000180: 7b7f 2fbe fd0a 13be d811 08bd ffec 073e
00000190: 3bc7 04be 002a ff3b 9200 ce3d 70f2 eebd
000001a0: c0e7 da3c 867e c0bd d888 cb3c d84d 9b3c
000001b0: c53f d1bd a057 74bc 9f98 193e 4d34 05be
000001c0: 5626 f33d 823d 0abe b94a a8bd bc30 893d
000001d0: b026 eebc 3c79 2bbe 73cc 1e3e 1088 16bd
000001e0: 264a f73d b7a0 31be d7e7 2dbe 7002 32bc
000001f0: 44f6 21bd 58b6 87bd 3a77 efbd a827 33be
00000200: c3c6 193e 4117 87bd 8c1a 10be 9eff c53d
00000210: fc71 123d 5460 25be 4a62 2cbe d3f5 22be
00000220: dfc2 96bd 0fee 323e 80f7 873c b432 b9bd
00000230: 00ea 49ba 2128 cebd 056e 1e3e 68af eabd
00000240: 5e62 fb3d 8066 60bb ab90 dfbd 14df f0bd
00000250: f243 d13d 2c1e 443d 0b36 003e 7201 803d
00000260: 72e3 c93d 308e 8e3d ad88 273e d66d 17be
00000270: 927b 22be 4036 213b e017 cfbc 4f22 84bd
00000280: 20d5 d8bb 7d18 dcbd 4519 313e 322d e33d
00000290: 5010 4a3d 6f50 2c3e 8847 3dbd 38a9 9e3c
000002a0: dee0 d93d 6a9a 993d b306 86bd e0fc 68bc
000002b0: 482b fabd a5ee 263e fe6d 813d 801e 9f3a
000002c0: 7640 ec3d 7b2b b6bd c023 033d 885a d1bc
000002d0: eabd cebd 0085 95ba 35ca 2dbe ae96 d0bd
000002e0: 72a1 913d 90ab 1e3c 18fa 7e3d 96a7 ad3d
000002f0: ea8a de3d 1ad4 f03d 34da 33bd 32bd 833d
00000300: 8151 053e ec36 31be db17 0a3e fafe fa3d
00000310: 204d 10be b9e0 2c3e 88fd f6bc 1022 363c
00000320: 9d0a babd 1330 bbbd 600b e8bd 98f7 d83c
00000330: da94 ca3d 886b d83c 25bd 2b3e c012 713b
00000340: 69da 133e 08a5 553d d7fc a5bd 6a1a d73d
00000350: 9a06 cd3d e6dd f13d 3b33 2fbe 229f b63d
00000360: 00f5 2bbc 93c7 253e 64de 3c3d 361c df3d
00000370: 8d3c 203e 8cb5 3f3d ea44 9f3d 3b5d 27be
00000380: b090 0cbc c8fc aabc e41b 8a3d d503 2ebe
00000390: e002 e7bc 3c0d f4bd 9053 41bc d02a 1b3c
000003a0: 707b 953d bc98 033d aa09 d03d 2b52 1f3e
000003b0: a0ab 87bd 1026 77bc 160d b93d c404 c9bd
000003c0: baf4 e23d de09 febd 10c3 283c 743d 143d
000003d0: 709f 353d c479 f0bd 653a bfbd 00ef 353c
000003e0: 5a77 a23d 2268 b83d d7b3 97bd 6545 adbd
000003f0: 97db 223e 00f3 44bc a8bb 563d 380f 813d
0.036166817 0.099929675 0.060074016 0.09869771 -0.09000864 -0.1628631 -0.09943457 -0.072290696
-0.045795336 0.095343694 0.0788513 -0.07036193 0.11846979 -0.1174879 -0.108206406 -0.08513735
-0.012935206 -0.15845925 -0.072912104 0.05210817 0.07803546 -0.10388884 -0.091796316 -0.042940542
-0.056532174 -0.020867854 0.13824026 -0.06926423 -0.09404743 0.045573533 -0.0020489842 0.057303682
-0.08600334 -0.0020216554 -0.09032839 -0.10133348 0.07593061 -0.031797484 -0.118049294 -0.12766252
-0.04147932 0.14759667 0.09190674 0.023913682 -0.059399597 -0.10449626 -0.08869296 0.033215657
-0.16198987 -0.1510814 -0.14726284 -0.10708996 0.002251044 -0.06703488 -0.03778632 -0.018297628
0.1558894 0.12569346 0.086986765 0.016293585 0.17058413 -0.006879404 0.09127389 0.07416405
0.1517931 0.13556983 -0.14710501 -0.07799573 -0.076106526 0.0032295436 -0.10929957 0.17546181
-0.039530605 0.026937142 -0.061920613 0.17376722 -0.09410024 -0.08074198 0.0069446415 0.1163152
-0.042323112 -0.12997586 0.006688416 -0.048941955 -0.08010006 0.05080819 -0.06405984 0.1605555
-0.0035444647 -0.042022943 0.017154962 -0.05097945 0.056814864 0.16289355 -0.089700356 0.02082929
-0.17138474 -0.1435966 -0.033220142 0.13274 -0.12966625 0.007786989 0.100587025 -0.11667335
0.026721835 -0.093991324 0.024845526 0.018958017 -0.10217241 -0.01491347 0.14999627 -0.13008232
0.118725464 -0.13500026 -0.08217377 0.066987485 -0.029071182 -0.16745466 0.15507679 -0.036750853
0.120746896 -0.17346464 -0.16982971 -0.010864839 -0.039541498 -0.06626576 -0.116926625 -0.17495596
0.15017228 -0.06596232 -0.14072627 0.09667896 0.035753235 -0.16150028 -0.1683437 -0.15914087
-0.073613875 0.17473625 0.01659751 -0.09042874 -0.000770241 -0.10066248 0.15471657 -0.11459237
0.122746214 -0.0034240782 -0.10916265 -0.11761299 0.10218038 0.047880337 0.12520616 0.06250276
0.09857835 0.06960714 0.16360731 -0.14787993 -0.15867451 0.0024598986 -0.02527994 -0.06451856
-0.0066172034 -0.10746858 0.17294796 0.11092605 0.049331963 0.16827558 -0.046210796 0.0193678
0.10638593 0.07500155 -0.065442465 -0.014220446 -0.122152865 0.16301973 0.063198075 0.0012139827
0.115357324 -0.08895012 0.032016516 -0.025555864 -0.10094817 -0.0011407435 -0.16971667 -0.1018499
0.071108714 0.009684458 0.062250227 0.0847923 0.108663395 0.11759205 -0.043909267 0.064325705
0.13019373 -0.17306107 0.13485663 0.12255664 -0.14091921 0.168826 -0.03015019 0.01111652
-0.090840556 -0.09140029 -0.113302946 0.02648525 0.098916724 0.026418462 0.16771372 0.0036784858
0.14438786 0.05215934 -0.08104866 0.10503085 0.10011025 0.11809902 -0.17109387 0.08917071
-0.010495424 0.16189413 0.046110526 0.10894053 0.15648098 0.046803996 0.07776816 -0.16344158
-0.008579418 -0.020872489 0.06743601 -0.1699365 -0.028199613 -0.11916587 -0.011799708 0.0094706565
0.072989345 0.03212808 0.10158093 0.15558688 -0.06624532 -0.015084758 0.09035699 -0.09815362
0.11081834 -0.12404226 0.010300413 0.03619142 0.044341505 -0.11741975 -0.0933731 0.011104345
0.07932921 0.09004237 -0.074073486 -0.084605016 0.1590408 -0.012020826 0.052425057 0.06301731

bias f4 [16]
00000000: 1c49 573d cd95 d6bd 9068 2c3c 6931 dfbd
00000010: 4349 dfbd 2a17 ffbd 69c6 2f3e 181f af3c
00000020: 2f7c abbd 0433 2b3d 700a 3bbd aaa2 903d
00000030: 3de3 063e a402 43bd ebe8 273e 74f3 ddbd
0.052559957 -0.10477791 0.0105229765 -0.10898096 -0.109026454 -0.1245559 0.17165531 0.021377131
-0.083732955 0.0417967 -0.04566425 0.07062276 0.13172622 -0.04760994 0.16397445 -0.108374506

weight f4 [16, 16]
00000000: 782c 34be d4ac bebd 9873 40bd 3068 58be
00000010: 9e4b 793e 90ae 2d3e bedf 7e3e 9c08 acbd
00000020: cc36 ecbd e8da 053d 9cdb 08be 6c4c 343e
00000030: 5c2d 713e 60c0 cebc 8075 613b 805b 30bc
00000040: 4c3f 643e 08d2 39bd 40fc 4cbc 708f 20be
00000050: ce64 033e d0a9 1bbd 8094 5d3d 2680 3bbe
00000060: 00ed 0bbc 6022 95bd 1cd0 39be 7ab1 65be
00000070: aaa3 50be 5435 dfbd 1816 5d3e 222f 253e
00000080: fcce 083e d2e2 07be f0e7 50be bc9e 8dbd
00000090: e452 efbd 0456 debd 509b 03be aec2 67be
000000a0: e078 993d 14ec 983d 887d 2fbe a857 3e3d
000000b0: a0e0 53be e6cf 2e3e 50bf d63c 2490 71be
000000c0: 3006 153d 7cc5 e73d d4f4 a7bd b0d2 71bd
000000d0: 9c40 2abe d0f2 e73c d83c f7bd 0c45 003e
000000e0: 5437 fa3d 9aee 29be d0e9 0c3e c05a e2bb
000000f0: 8088 f2bb 287d 963d de74 63be 4247 1dbe
00000100: ecfb c53d d4aa 083e 902e 64be 646c b1bd
00000110: 44db 423e 7c8d 093e 88a1 3cbd 7c0d 6bbe
00000120: 801b 36be aae0 3abe a43d 663e f824 78be
00000130: 0072 933a 3408 60be d03f 92bc 4cd2 32be
00000140: f036 ff3c 92cf 2bbe 880a 2f3e 785f 88bd
00000150: 26d2 00be 0c87 e13d 481a f4bd a0e1 643c
00000160: 50b7 4fbe 6cba 6a3e f65b 1fbe 9c8e 90bd
00000170: a826 52be 7ee5 14be e052 09bc f014 eebd
00000180: f0d3 1cbe bcef 583e 64be 4abe 54e9 bdbd
00000190: cca3 30be c85a 753e 96d8 173e 9cc6 69be
000001a0: d2a3 5c3e fa56 65be dec7 3a3e 846f 0d3e
000001b0: 78aa 713e 084e 78bd 1aea 32be 1852 0a3d
000001c0: 207d b73c ec16 60be d426 463e 6065 7bbe
000001d0: d01a cb3c 5ce6 fb3d 58a2 923d 9c8c d6bd
000001e0: 84d3 403e 3443 f1bd 9c4b 03be 60e5 c7bc
000001f0: 92a1 563e f099 ff3d 0037 02bd 9847 e53d
00000200: 240b b6bd f8a1 64be 2804 3ebe 329a 773e
00000210: 24d0 363e e049 323e c0d4 4a3c 80a1 003e
00000220: 3011 a5bd e872 edbd 384b de3d 90db ad3c
00000230: 5c7a 6abe 4035 b1bd fe02 383e 207b bdbc
00000240: a864 63be 801e d53b f634 2fbe f66a 37be
00000250: c0c6 133c 50b2 ac3c 1480 083e d034 f2bd
00000260: b0f8 d8bc 907e 253e 04bf 423e 64bc ccbd
00000270: 00df b43a 1828 bf3d f840 593e c8b8 58bd
00000280: f802 c7bd c018 363e 329f 3c3e 505f aa3d
00000290: 263d 353e 5291 6b3e ae0f 0bbe e875 febd
000002a0: a8c8 d0bd b0a2 b33d 40cd 0cbc 4666 41be
000002b0: 4889 1fbe e4bd 5abe 32c2 58be e0f8 e83c
000002c0: b28f 2a3e 8491 9f3d d833 7cbe 84ad 363e
000002d0: c8a8 53be f44e 6ebe 3208 7d3e 8023 59bb
000002e0: 604f 22bd 426b 5abe 9cf4 5fbe f00b c83c
000002f0: ac14 5abe e0a0 303e e86a 47bd a0d0 3e3d
00000300: b458 fcbd c4b6 8ebd 0018 6239 64d0 59be
00000310: ec53 dfbd 70a0 113e 6afb 0ebe c02f 9f3b
00000320: 084f 4d3d 0057 523b 9a59 74be 508f b23d
00000330: 0c6a 743e b4d6 7cbe d835 e3bd a065 f4bd
00000340: e2d1 033e b684 653e ba52 673e 804c cbbd
00000350: 80d4 0c3b b29c 2bbe 50cb 13be 80a0 9c3c
00000360: bc0f 89bd ac11 e3bd bed6 4e3e 7447 94bd
00000370: f24b 413e 0c10 19be ec04 e4bd 842e c3bd
00000380: 5ebe 493e a8cb 9bbd e0ab c83d 4445 0c3e
00000390: 8ca5 cfbd 102c 84bc fe1b 7bbe 0cb1 84bd
000003a0: b45d 0bbe 40cd 133e eaa9 5ebe bcc1 4f3e
000003b0: c6fb 673e 1835 2a3d 0039 aa3a 6894 8dbd
000003c0: 767e 28be c424 d3bd 4efa 7c3e a0b9 eb3d
000003d0: 4437 d83d 30fe 53bd e892 cc3d b0c0 cb3c
000003e0: b000 423d cc18 a1bd 20df eabc 52d1 40be
000003f0: 54c4 033e 985e 7abd eedf 02be d0c1 29bd
-0.17595088 -0.09310308 -0.04698524 -0.21133494 0.24345252 0.16961122 0.24890038 -0.084000796
-0.11533889 0.03267947 -0.13365024 0.17607278 0.2355246 -0.025238216 0.003440231 -0.010764003
0.22289771 -0.045366317 -0.012511313 -0.15679717 0.12831423 -0.038003743 0.0540967 -0.18310603
-0.008540392 -0.07281947 -0.18145794 -0.22430983 -0.20374933 -0.108988434 0.2159046 0.16131261
0.13360208 -0.13270119 -0.20400977 -0.06915042 -0.11685732 -0.1085625 -0.12852216 -0.22632858
0.07493758 0.07466903 -0.1713773 0.046470314 -0.20691156 0.17071494 0.026214272 -0.23590142
0.036382854 0.11316964 -0.08200994 -0.059038818 -0.16626209 0.028314024 -0.12072152 0.1252634
0.12217584 -0.16594926 0.13761067 -0.006907791 -0.007401526 0.073480904 -0.2221255 -0.15359214
0.09667191 0.13346416 -0.22283387 -0.08663252 0.19028956 0.13432878 -0.046052486 -0.22954363
-0.17783928 -0.18249765 0.22484452 -0.24232852 0.0011249185 -0.21878129 -0.017852694 -0.17463034
0.031154126 -0.167784 0.17093861 -0.06658834 -0.12580165 0.11012086 -0.11919075 0.013969809
-0.20284772 0.22922677 -0.15562424 -0.070584506 -0.20522559 -0.1454067 -0.008381575 -0.11625087
-0.15315223 0.21185201 -0.19799191 -0.092730194 -0.17249984 0.23960412 0.14828715 -0.2282967
0.21546867 -0.2239646 0.18240306 0.13812071 0.23600185 -0.06062129 -0.17472115 0.033769697
0.022398531 -0.21883744 0.19350749 -0.2455039 0.024793059 0.12299797 0.07159871 -0.10476038
0.18830687 -0.11780396 -0.12821811 -0.024401367 0.20960072 0.12480533 -0.031790733 0.11195296
-0.08888844 -0.22327411 -0.18556273 0.24179915 0.17852837 0.17410994 0.012379825 0.12561607
-0.08059919 -0.11594182 0.108541906 0.02122286 -0.22898239 -0.08652735 0.17969891 -0.02313
-0.22206366 0.00650388 -0.17110047 -0.17911896 0.009019554 0.02108112 0.13330108 -0.118264794
-0.026485771 0.16161561 0.19018179 -0.0999687 0.0013799369 0.09333819 0.2121619 -0.052910596
-0.09717363 0.17782879 0.18420103 0.08318961 0.17699108 0.23004654 -0.135802 -0.124248326
-0.10194522 0.087712646 -0.008593857 -0.1888667 -0.15579712 -0.213615 -0.2116783 0.028438985
0.16656378 0.07791427 -0.24629152 0.17839628 -0.20669854 -0.23272306 0.24710158 -0.0033132732
-0.03962648 -0.21329978 -0.21870655 0.024419755 -0.21296948 0.17248869 -0.048685938 0.04658568
-0.12321606 -0.069684535 0.0002156198 -0.21270901 -0.10904679 0.14221358 -0.13963094 0.004857987
0.0501242 0.0032095313 -0.23862305 0.08718741 0.23868579 -0.24691278 -0.11094254 -0.11933446
0.12873033 0.22413906 0.22590151 -0.099267006 0.0021488965 -0.16758993 -0.14433026 0.019119501
-0.06692454 -0.11087355 0.20199105 -0.07240191 0.18876627 -0.14947528 -0.11133751 -0.095303565
0.19701526 -0.07607204 0.097984076 0.13698298 -0.101389974 -0.016134292 -0.24522397 -0.064790815
-0.13609964 0.14433765 -0.21744505 0.20288748 0.22654638 0.04155454 0.0012986958 -0.06913072
-0.16454491 -0.10309747 0.24704859 0.115100145 0.10557416 -0.051756084 0.09988958 0.024872154
0.047363937 -0.07866058 -0.028670847 -0.1882985 0.12867862 -0.061125368 -0.12780735 -0.0414446

bias f4 [16]
00000000: 2cf4 f43d 3849 ab3d 082d b23d 70a3 ac3c
00000010: d067 71bd 0ccf 0c3e d222 69be e4ba 1abe
00000020: 60b3 01bc 5661 683e 8014 5ebb 006e 7a3c
00000030: 3ee0 3e3e cc00 92bd b033 f33d 1896 273d
0.119606346 0.08363575 0.08699995 0.021074027 -0.058936894 0.13750857 -0.22767189 -0.15110356
-0.0079163015 0.2269338 -0.003388673 0.015285015 0.18640229 -0.07129058 0.11875093 0.040914625

weight f4 [1, 16]
00000000: ba30 563e d047 6bbd 0c00 e33d 9040 fe3c
00000010: f070 3cbd 329c 0f3e 74f6 32be 00c3 e03c
00000020: a8a6 e53d 8e73 4a3e 9072 4abd 0c8b 9fbd
00000030: b692 3fbe 00e0 bebc b42f ecbd 3028 b3bd
0.20917025 -0.057441533 0.11083993 0.031036645 -0.046006143 0.14024428 -0.17476827 0.027436733
0.11213428 0.19770643 -0.04942566 -0.07790193 -0.1870831 -0.02330017 -0.11532536 -0.087478995

weight f4 [2625, 1]
00000000: 0d2f e0be 3f97 053f 5fc8 4abf 99d2 823e
00000010: 5ab6 8dbf 2aff 893e d25b 93be 4ec6 77bf
00000020: fc6c a2be df77 cbbe 58bc 8a3f 7aa4 c23f
00000030: 48b1 02bf 8612 ebbe 99e0 86bf acb5 ad3e
00000040: fa73 eabe b0e8 5a3f 902f ac3e 1b2c 1640
00000050: b58e 31bf de91 fd3d dfb2 23bf 305d 8f3f
00000060: 016b babf 82b7 0ebd fb01 03bf 736c 8c3d
00000070: 1c89 013f d98c ce3f f7d1 b73f 9825 e9be
00000080: cdc0 98be 6f09 b8be c33d 1ebe 3cf9 d33f
00000090: 1759 ef3e 6388 5c3f cbf9 ac3f 847c 233e
000000a0: 8f1a 5cbf 3b28 6b3f 81d8 403f 75f4 d53f
000000b0: 0743 22bf 5f6c 8cbf 581b a7bf 9046 1640
000000c0: 9374 32bf 5baa 323f 55fe 073f ab99 0dbf
000000d0: 4b5f dfbe 8b31 8a3f 02c2 483f 8730 073f
000000e0: 88e9 993f 3386 443d aeeb 863f 648a eabf
000000f0: ed98 733f 0f72 1fbf bbcd 2f3e 0d64 0f3f
00000100: e806 f83e f264 9abf 075e a23f 99c1 823f
00000110: e183 323f 75db 5d3f 84d3 15c0 0a28 c83d
00000120: 4428 cebf 8cb9 a6bf c2d8 40bd e054 11bf
00000130: 9fd7 08bf a9ab 483f b710 c6bd f542 33bf
00000140: 5965 063f df2d ab3e 2fbb 01bf fb5a e83e
00000150: 646e 9ebf d963 42bf 1adf 483f b6d1 ab3e
00000160: ea16 543e 3514 c1be 6091 99bf ce17 edbe
00000170: 4b37 c0bf 80bc 773f 2636 8d3f 769c 7ebf
00000180: d854 4bbf dc5b d3bf 10ca 023f 5a7c f93f
00000190: 9d11 433f 3a81 2240 be1e 7d3f a2d1 20be
000001a0: 930f b2bc e2c8 813e 2953 9dbf c27a 743f
000001b0: ac34 933d 4725 8c3f 99e9 e53e 0766 39bf
000001c0: 4237 2c3e 2329 afbe 8748 bc3e c0bc ccbc
000001d0: 8cc3 65bf a3cb 673f a9f7 4ebf 748a 523f
000001e0: aa0e 87be 4573 03be 4d92 c83e d6c8 563d
000001f0: ae40 e93e e752 603f 3f24 d13d e6bf 4dbf
00000200: 6ec9 4b3f c117 88bd 5433 a53f 75b0 13bf
00000210: 51d5 3bbf fef8 4f3c 2925 c3bd af68 53bf
00000220: 018c f1bf 28f0 ecbf ae0e d13f 96fa 39bf
00000230: 2573 ac3e a57c fe3e 0cd7 c73d 03a9 5fbe
00000240: d4ce 8cbf 98bd c0bd a181 da3f 0ddc 543f
00000250: 6c31 19c0 fbe5 cebf bc5e 50bf d877 973f
00000260: c1ec bcbe 4140 c0be 1e16 a13e dd80 4d3e
00000270: 365b 84bf 4072 53bf 7e78 c8bf a612 b33f
00000280: 4464 76be f7e5 26bf 7dbe 833f 1820 44bf
00000290: 92c2 2cc0 c56c 47bf 6b52 4e3f b3f0 6c3f
000002a0: e5b3 e43e f43d a43d 853e d63e 8f4b 063e
000002b0: 200a bbbe bd52 7fbf 911b bbbd bee9 82bf
000002c0: 8a4a 0a40 b8c9 a4bf 4093 99bc a81a f3be
000002d0: 0144 4a3f cd21 0bc0 ea32 873e 08fe 5ebf
000002e0: 15d9 48bf 0245 0d3d 3229 be3e 1659 82be
000002f0: b215 813e 05a7 36bf 98ef 243f 57e7 f8be
00000300: 028c 7abe aef6 92bf d096 493f 05f6 c23c
00000310: 680c 123f 5dd1 67bf add0 333e 28e1 20bf
00000320: b264 c43f 4e67 2dbf 7bfb 0c3f 4e9b 573d
00000330: 3b0a e8be aa98 cb3f fbf9 1abf 0c57 b0bf
00000340: 8bde 743e 9112 77bf 48e1 a5bf b373 e23f
00000350: bbb7 663f 4bca 4a3e 72a7 0ac0 eaa3 b73e
00000360: a2f7 163f 88ff 4bbf 63d9 8d3e d3be bbbe
00000370: e45e 893f 19d0 c63d 287c 6b3f 4652 68bf
00000380: 49ec 11be 59df 273d d898 5d3f 4675 7fbf
00000390: 5264 41bf 997b 91be 5781 193f 4b72 ac3f
000003a0: d35c c2bf b2e8 be3c 686b be3e 5eeb 183f
000003b0: 9c27 343f 6159 abbf f858 59bf 253a b53f
000003c0: 0ba5 f23d a49d 4ebe db10 ffbf f7a0 7f3e
000003d0: dd04 85bf eda8 b7bf 1e86 3cbe 168f 94bf
000003e0: c2e3 e8be 5e90 4e3f 6404 e3bf c1ad 67bf
000003f0: 23f7 1abf 7456 103f cfa6 ab3c 586d 89bd
-0.43785897 0.5218391 -0.7921199 0.25551298 -1.1071274 0.26952487 -0.2878099 -0.96786964
-0.31723773 -0.39739892 1.0838728 1.5206444 -0.5105176 -0.4591257 -1.0537292 0.33927667
-0.45791608 0.855113 0.33630037 2.346442 -0.6935838 0.123813376 -0.6394481 1.1200314
-1.4563905 -0.034842975 -0.51174897 0.068566225 0.5059984 1.6136733 1.4360951 -0.45536494
-0.29834595 -0.35944697 -0.15453248 1.6560435 0.46747658 0.8614561 1.3513731 0.15965468
-0.85978025 0.9185826 0.7533036 1.6715227 -0.63383526 -1.0970572 -1.305522 2.3480568
-0.6970913 0.6979119 0.53122455 -0.55312604 -0.4362739 1.0796369 0.7842103 0.5280842
1.2024393 0.047979545 1.0540674 -1.8323483 0.9515522 -0.62283415 0.17168324 0.5601204
0.4844277 -1.2062056 1.2684945 1.0215331 0.6973248 0.8666299 -2.341035 0.09773262
-1.6106038 -1.3025374 -0.047081716 -0.56770134 -0.5345401 0.7838693 -0.09671157 -0.70024043
0.52498394 0.33433434 -0.50676244 0.45381913 -1.2377439 -0.75933605 0.78465426 0.33558434
0.20711866 -0.3771073 -1.199749 -0.46307224 -1.5016874 0.96772003 1.103215 -0.9945749
-0.79426336 -1.6512408 0.5108957 1.9491074 0.7619875 2.5391374 0.98875034 -0.15704969
-0.021735942 0.25348574 -1.2291003 0.95499814 0.07187781 1.0948876 0.44904783 -0.72421306
0.16817954 -0.34211072 0.36774084 -0.024992347 -0.89751506 0.905451 -0.8084665 0.8224251
-0.26378375 -0.1283694 0.3917412 0.052437626 0.4555716 0.876265 0.102119915 -0.8037094
0.7960423 -0.06645156 1.2906289 -0.5769113 -0.7337237 0.012693642 -0.09528572 -0.8258161
-1.8870851 -1.851079 1.6332605 -0.7264799 0.33681598 0.4970447 0.09757814 -0.21841817
-1.1000619 -0.09411162 1.707081 0.8314827 -2.3936415 -1.6163934 -0.81394553 1.1833448
-0.3689938 -0.37549022 0.31462187 0.20068689 -1.0340335 -0.82596207 -1.5661771 1.3990066
-0.24061686 -0.6519465 1.0292507 -0.7661147 -2.6993756 -0.77900344 0.8059451 0.9255478
0.446685 0.08019629 0.41844574 0.13114761 -0.36531162 -0.99735624 -0.09136117 -1.0227582
2.1607995 -1.287406 -0.018746972 -0.47481275 0.79010016 -2.173938 0.26406032 -0.8710637
-0.7845624 0.03448964 0.37140805 -0.25458592 0.25211865 -0.713486 0.6442809 -0.48613998
-0.24467471 -1.1481531 0.78745747 0.023798952 0.5705018 -0.9055384 0.17560072 -0.6284356
1.534323 -0.67735755 0.5507123 0.052638344 -0.45320305 1.5905964 -0.6053769 -1.3776565
0.23913018 -0.96512705 -1.2959375 1.7691559 0.901241 0.19803731 -2.16647 0.35867244
0.5897161 -0.79686785 0.27704915 -0.36669025 1.0732083 0.0970766 0.9198632 -0.9075054
-0.14250292 0.040984485 0.86561346 -0.9978832 -0.755437 -0.2841461 0.5996298 1.347238
-1.5184578 0.023304317 0.3719132 0.5973414 0.7037294 -1.3386651 -0.8490138 1.4158369
0.11847886 -0.20177323 -1.9927019 0.24963747 -1.0392109 -1.4348427 -0.18410537 -1.1606166
-0.45486265 0.80689037 -1.7735715 -0.904995 -0.6053335 0.56381917 0.020953564 -0.06710309
